saved_models/A_gnn.pth (torch, 37928 bytes, 8 tensors)

conv1.weight f4 [3, 3, 32]
000000 b0 d4 9b be 18 2c 41 be d6 0c 59 be 44 e8 e0 bd
       -0.30435705 -0.18864477 -0.21196303 -0.10981801
000010 71 2c ad be 9e ca e3 be 90 57 60 bd 69 01 8d be
       -0.3382297 -0.44490522 -0.054771006 -0.27540138
000020 88 a9 b2 be 49 aa a9 3e da dd a6 be 81 f4 b8 be
       -0.34894967 0.3313773 -0.32591134 -0.36124042
000030 22 2d 2f be 06 4d 81 be f5 a5 b0 3e 4b 31 d0 be
       -0.1710706 -0.25254077 0.34501615 -0.40662608
000040 3e 39 99 be d8 94 83 be c0 a4 a1 be b9 5e 2f 3e
       -0.29926485 -0.25699496 -0.31571007 0.17125978
000050 a0 36 b4 bd 76 f8 55 be 66 28 93 3e 5f 47 54 3d
       -0.087994814 -0.20895562 0.2874176 0.051825877
000060 83 5b 30 be c0 ff 31 3c a0 8b 2a 3d 3a 6e 89 3e
       -0.17222409 0.010864198 0.041637063 0.2684191
000070 67 14 30 bd 75 bc 86 be 40 f0 db 3c d9 19 e4 be
       -0.042988207 -0.26315656 0.026847959 -0.4455097
000080 cf 60 24 3d db a1 1f 3e 83 95 08 3e 86 19 13 be
       0.040131386 0.15589087 0.13338284 -0.14365205
000090 d8 25 0f bd 95 2d 93 be c2 37 28 3e f7 2e 0e 3e
       -0.0349482 -0.28745714 0.1642752 0.13885103
0000a0 dd 80 96 3e 1b 64 8a bd 74 94 87 bd 1c bf 6f be
       0.2939519 -0.06757375 -0.06620112 -0.23412746
0000b0 4a e9 19 3e ba 3d 36 bb d0 15 9b b8 fc 72 47 3d
       0.15030399 -0.0027807788 -7.395039e-05 0.048693642
0000c0 19 47 e4 bd 13 91 9b 3e b4 1f de bd cd e8 21 3e
       -0.11146373 0.3038412 -0.10845891 0.15811463
0000d0 16 94 20 3e 48 42 0e be 16 7a 9e 3e 4a dc a5 3e
       0.1568149 -0.13892472 0.3095252 0.3239463
0000e0 25 ca 5a 3e b1 e4 c5 3e 56 7c 5c bd b6 d5 6d 3d
       0.21366175 0.3865104 -0.053829513 0.05806514
0000f0 32 2b 11 3e 01 0f 5d be e4 d0 90 be ea 4d 0a 3e
       0.14176634 -0.21587755 -0.2828437 0.13506284
000100 7c 66 b4 3e 22 cb aa 3e 2d 72 5b 3e 50 59 ae be
       0.3523444 0.33358103 0.21430273 -0.34052515
000110 b9 dc c0 be e0 87 7a be 36 48 da 3d 9e f5 bf 3e
       -0.37668398 -0.24465895 0.106583044 0.3749208
000120 8d 7e 32 3e 0c f6 e2 3e a0 73 7b bd b0 1a 40 be
       0.17431088 0.44328344 -0.061389565 -0.1876018
000130 a5 51 cd 3e 4c c3 85 3e ee 72 94 3e 4e ef 52 be
       0.40101352 0.26125562 0.28993934 -0.205991
000140 e5 cd 25 be 3f 59 ba 3d dd d7 99 3e 8b 5a 71 bc
       -0.16191824 0.090990536 0.30047503 -0.01473106
000150 bd e4 c1 be f4 cb 89 be 3c 3b 90 3e b3 58 8b bd
       -0.37869826 -0.26913416 0.28170192 -0.068040274
000160 5c 28 e3 3e bb b0 80 3e 5e 59 17 3e e6 bb 6c 3e
       0.4436673 0.25134835 0.14780185 0.23118553
000170 c8 b7 d6 be 4b 66 c3 bc 30 69 4f bd ca 8c 7e 3c
       -0.4193709 -0.023852488 -0.050637424 0.015536496
000180 a3 6f c0 3e d1 3a d3 3e e0 b8 33 3d 65 2b 9c 3e
       0.37585172 0.4125581 0.043877482 0.30501857
000190 01 ef 9a 3e 80 c7 6b bb 44 4f 48 be 77 bb aa 3e
       0.3026047 -0.0035977066 -0.19561487 0.3334615
0001a0 50 3d 41 bd 56 b3 4b 3e 7c 1f e5 3d 0c 9d 27 be
       -0.047177613 0.1989263 0.11187646 -0.16368502
0001b0 ce 6e 11 be 71 e6 58 be 14 47 83 3d 00 2f 85 bb
       -0.14202425 -0.21181656 0.064100415 -0.0040644407
0001c0 40 cb c5 bc d1 a7 41 be aa 73 52 3e 18 6d a9 be
       -0.024144769 -0.18911673 0.20551935 -0.33091044
0001d0 c0 de 0b bc e3 4f b4 3e 90 7c a1 be ec 4a a4 bd
       -0.008536994 0.352172 -0.31540346 -0.08022103
0001e0 19 84 c7 3e 91 8c 82 3e 54 d9 bf 3d 62 09 95 be
       0.3896797 0.2549787 0.09367624 -0.2910872
0001f0 2d 3d 93 3e 7a 5b 27 3e af cc 6f be 55 25 68 be
       0.2875761 0.1634349 -0.23417924 -0.22670491
000200 8d ee ca 3e 92 77 6f 3e f4 76 8f bd 00 01 04 bb
       0.39635125 0.23385456 -0.070051104 -0.0020142198
000210 db eb ac 3e 9b f9 99 be 38 69 ac bd de 72 02 3e
       0.33773693 -0.30073246 -0.084185064 0.12739131
000220 5f e6 8f 3e c8 52 7d 3d a8 84 29 bd 55 46 80 3e
       0.28105447 0.061846524 -0.041386276 0.2505366
000230 c6 97 2b 3e d1 d4 b8 be c6 4d 8b be 4a 3d 00 3e
       0.16757116 -0.36099866 -0.27207774 0.1252338
000240 f2 fd 37 be 2a cd 87 be e8 63 74 be 43 7a 90 3e
       -0.17967966 -0.26523715 -0.23866236 0.28218278
000250 25 08 97 be f1 01 9e 3e 0c c7 dc 3d 42 63 5b be
       -0.294984 0.30860856 0.10780153 -0.21424583
000260 ac 85 e8 3d dd d0 b8 3e bc 45 8f be 4a 1a 0a 3e
       0.11353621 0.3609685 -0.2798289 0.13486591
000270 f6 0f 18 3e 5a 42 39 3e c1 6d 7b be 9e df 23 3e
       0.14849839 0.18091717 -0.24553587 0.16003272
000280 ee 31 65 be 41 b8 c3 3e a0 bd 52 bd 42 db 3f 3e
       -0.22382328 0.38226512 -0.05145037 0.18735984
000290 6c 82 bc be 34 dd c0 bd 24 c5 f4 3d d0 cb 8e bd
       -0.36818254 -0.09417191 0.11951664 -0.06972468
0002a0 a6 07 59 3e 04 90 a6 3d ca 07 3b 3e 94 87 02 be
       0.21194324 0.081329376 0.1826469 -0.12747031
0002b0 c0 6d b7 bc c0 4d 52 3d 03 08 8d be f8 35 af be
       -0.0223912 0.05134368 -0.27545175 -0.34220862
0002c0 85 50 c1 be 7a 46 6c be ad 8b 4f be f8 c7 86 3d
       -0.37756744 -0.2307376 -0.20268126 0.0658111
0002d0 8f 19 d1 3e 00 f5 41 3d 80 e6 81 bc c0 2c 0e 3c
       0.40839812 0.04735279 -0.015856981 0.008677661
0002e0 d0 f5 83 bd 90 e1 04 be 96 27 02 be 4a 94 00 3e
       -0.064433694 -0.1297667 -0.12710413 0.12556568
0002f0 d6 b4 11 3e 12 3a 2f 3e 3f 41 d3 3e 70 49 8e bc
       0.1422914 0.17111996 0.41260716 -0.017369002
000300 94 36 c0 be e2 08 88 be 22 df 71 3e 00 10 09 bc
       -0.3754164 -0.26569277 0.23620275 -0.008365631
000310 fc 6d a9 bd 94 07 ca 3d ac 01 fd bd 82 b1 8b be
       -0.08272931 0.09864727 -0.123538345 -0.27283865
000320 84 51 3f be 20 61 c0 bd 5e 61 3d be 94 02 ea 3d
       -0.1868344 -0.09393525 -0.18494174 0.11426273
000330 6e 83 15 be 5e 36 3a 3e 68 33 08 3d 00 2c a0 bb
       -0.14600918 0.18184802 0.03325215 -0.0048880577
000340 1c a6 ee 3d 0a c9 67 3e 8c 95 ec bd ac 7d de 3d
       0.116527766 0.22635284 -0.11551961 0.10863814
000350 d8 bf a1 3d 04 c3 1b be fa 7a c9 be d9 11 87 3e
       0.078979194 -0.15211111 -0.39351636 0.26380804
000360 cb f6 c6 3e 46 14 18 be 69 d1 a5 3e 9a bf 58 3e
       0.38860163 -0.14851484 0.3238633 0.2116684
000370 b2 4b 55 3e a7 83 3f be 56 24 7f 3e 9b ef 6b be
       0.20829657 -0.18702565 0.24916205 -0.23040621
000380 e8 5f 7b 3d 45 f8 8c 3e cd 4e 8e 3e a6 8b 84 be
       0.06137076 0.27533165 0.27794495 -0.25887793
000390 ca 35 22 3e 8c 0b 8d 3d 1d 37 b0 be 2c c6 d3 3d
       0.15840831 0.06886968 -0.34417048 0.10340533
0003a0 ac 38 c8 3d 5d 85 a8 3e f2 3b b9 be 20 68 6c bd
       0.09776434 0.32914248 -0.36178547 -0.05771649
0003b0 8a 56 12 be 80 34 2a 3b 5e 88 bb be 9c ef ae 3d
       -0.14290825 0.0025971234 -0.36627477 0.085417956
0003c0 f2 f8 85 be de e6 14 be 84 c5 ca bd d7 e4 8e 3e
       -0.26166493 -0.14541194 -0.09900954 0.27908966
0003d0 1b 2f 9b 3e d5 71 bb be 1c dc 79 be 72 45 50 3e
       0.30309376 -0.36610284 -0.24400371 0.20338991
0003e0 c0 22 69 bc 8d e3 b3 3e e4 cc b4 3d e0 44 c8 be
       -0.014229476 0.35134545 0.08828142 -0.39115047
0003f0 f8 47 be be 1f bf c7 be 5f bb 9c 3e 8e 32 07 be
       -0.37164283 -0.39013 0.30611703 -0.13202879

conv1.root f4 [3, 32]
000000 79 83 9b 3e d7 e4 bc 3d e9 e6 cb 3e 5e 46 ca 3e
       0.30373743 0.09223335 0.39824608 0.3950681
000010 ee d2 26 3e fe da ec be 92 d8 a2 be c8 54 6f 3e
       0.16291401 -0.46260828 -0.31805855 0.23372185
000020 03 54 94 3e 2a 9b 5d 3d 97 5f 53 be ac a9 c9 be
       0.28970346 0.054103054 -0.20641933 -0.39387262
000030 cd 21 85 3e d4 fb cf 3e 4e 47 53 be 12 6c 6d 3e
       0.2600235 0.40621817 -0.2063267 0.23185757
000040 05 2f 47 be af 09 28 be d8 52 a4 3d 3a 62 02 3e
       -0.1945153 -0.16409944 0.08023614 0.12732783
000050 9d c4 86 3e ec 53 cd 3e cc 32 02 bf 93 35 77 ba
       0.2632188 0.4010309 -0.5085876 -0.00094302854
000060 76 40 24 be 06 1d 7e 3e cd 6a 36 bd e6 74 58 be
       -0.16040215 0.24815759 -0.044535447 -0.21138343
000070 ff 64 81 3e 6a ed bd 3e 30 57 91 bd d3 a0 99 be
       0.25272366 0.37095195 -0.07096708 -0.30005512
000080 38 fb e8 bc a7 e1 94 bc bc 58 5b bd 2c 79 23 be
       -0.028440103 -0.018174006 -0.05355142 -0.15964192
000090 4a 96 22 be e0 be 8f 3e 8f 3c a7 be 6a 85 b6 3d
       -0.15877643 0.28075314 -0.3266339 0.089121655
0000a0 7e f7 4a bd 5c 2b cc bd 98 13 c3 be c4 c0 2b be
       -0.049552433 -0.09969208 -0.38100886 -0.16772753
0000b0 e0 96 b0 be f8 f6 72 3e e8 ea 5f b9 57 80 5f be
       -0.34490108 0.23727024 -0.00021354447 -0.21826302
0000c0 ea 00 33 3d 19 bd f5 bc ed 8e b2 be af 2c ac 3e
       0.043702044 -0.029997395 -0.3487467 0.3362784
0000d0 21 a7 8b be 65 9f 31 3e 61 58 44 3e 25 b9 cd bc
       -0.27275947 0.1734596 0.19174339 -0.025112698
0000e0 ce 78 6d 3e 05 af bf be 5d 43 06 3d c0 fa 6c b9
       0.23190615 -0.37438217 0.032779086 -0.00022600126
0000f0 6a e1 c3 3d 77 d3 c4 3e 1b e9 a0 be 48 49 0d be
       0.09564479 0.38442585 -0.31427845 -0.13797486
000100 77 46 ea be 00 7a 69 3d 27 b8 87 bd 00 54 91 3e
       -0.45756885 0.057001114 -0.06626921 0.283844
000110 95 52 c3 be 44 38 e5 3d 3c e6 d5 3e 05 3b 80 be
       -0.38148943 0.111923724 0.41777217 -0.25045028
000120 2c 39 5f 3e 48 d8 bd 3e 95 b0 64 be 48 0f 6a be
       0.21799153 0.37079072 -0.22332986 -0.22857392
000130 09 20 77 be 0d 4a 82 be 8a 3c 69 be 5d 19 b7 3e
       -0.24133314 -0.2544712 -0.22777 0.35761538
000140 fe d4 80 3e ef c5 37 be 00 f5 7c 3c a4 73 b2 be
       0.251625 -0.179466 0.015439272 -0.34853852
000150 9a 66 92 3e 99 82 56 be 81 c8 09 3e 3a 24 ad bd
       0.28593904 -0.20948257 0.13455392 -0.08454175
000160 3e ba 5a be b4 ad b2 be 3c a4 83 be a0 d8 af b8
       -0.21360108 -0.3489815 -0.25711238 -8.385e-05
000170 66 62 c2 3e d7 a0 73 be b1 1c b1 be 67 03 b7 be
       0.37965697 -0.23791824 -0.34592202 -0.35744783

conv1.bias f4 [32]
000000 73 39 59 bd 47 b5 dd bd 6e 39 59 3d ab 3c 8a 3d
       -0.053033303 -0.108255915 0.053033285 0.06749853
000010 00 00 00 00 aa bb c5 bd 19 74 c5 bc 75 39 59 3d
       0.0 -0.09654935 -0.024103211 0.05303331
000020 b6 0e 79 bd cc d5 c5 bc 00 00 00 00 00 00 00 00
       -0.060805045 -0.024149798 0.0 0.0
000030 00 00 00 00 81 84 c0 3c 76 39 59 bd 13 78 91 bb
       0.0 0.023500683 -0.053033315 -0.004439363
000040 62 a7 2f 3c 75 39 59 bd 00 00 00 00 ed 84 1b bb
       0.0107210595 -0.05303331 0.0 -0.0023730353
000050 69 db 69 3d b5 30 9e 3c e5 59 d1 bd 76 39 59 3d
       0.05709401 0.019310335 -0.10222224 0.053033315
000060 fb 7a ba bc 00 00 00 00 cb 7c 53 bd 68 39 59 3d
       -0.02276372 0.0 -0.051632684 0.053033262
000070 00 3f 1c 3b df 79 95 3d 00 00 00 00 75 39 59 bd
       0.0023841262 0.07298636 0.0 -0.05303331

conv2.weight f4 [3, 32, 64]
000000 4a 8b 6d 3d 45 b0 30 3e c9 f5 48 3e e7 ff 3d be
       0.057994165 0.17254741 0.1962501 -0.1855465
000010 8c 85 0b 3d b9 06 96 bd 88 d8 91 bc a9 6f e9 3c
       0.034062907 -0.07325501 -0.017803445 0.028495627
000020 59 cf 29 3e 13 0e a1 3d f3 51 21 3e 45 df 49 3e
       0.16583003 0.078640126 0.15753917 0.19714077
000030 86 c1 7c 3d 6e 6b 3f 3e 8d 14 26 3e 92 6f 3f 3e
       0.061707996 0.18693325 0.16218777 0.18694904
000040 32 6d d9 bd c0 8f 04 bb 35 25 7b 3e 55 ee 45 3e
       -0.106165305 -0.0020227283 0.24525912 0.19329198
000050 8a 38 16 3e 51 68 27 be 7e fb 32 be eb d1 72 3c
       0.14670005 -0.16348387 -0.17478749 0.014820556
000060 84 60 8c bd 0b 47 66 3e 8d 2f 36 3e c6 77 b9 3d
       -0.068543464 0.22488038 0.17791577 0.09056048
000070 56 89 b1 3d 21 9f 01 3e c9 74 1d be 5e ea 35 3e
       0.08668773 0.12658359 -0.15376581 0.17765185
000080 9f d1 4e be de bb 47 be cc 29 46 bd b2 04 48 3c
       -0.20197152 -0.1950526 -0.048379704 0.012208151
000090 8e 9d 30 3e 93 89 0e 3d 6d 6f f7 3d a7 dc a0 bb
       0.17247602 0.03479917 0.120818 -0.0049091163
0000a0 84 46 17 be 74 7d 15 3d 49 e1 fd 3d 26 31 82 3c
       -0.14772993 0.036496595 0.12396485 0.015892576
0000b0 6c 37 4c bc 3a d2 53 3e e4 77 7f be 11 d2 e8 bd
       -0.0124643855 0.20685664 -0.24948078 -0.11368192
0000c0 b9 ba 9e 3d a0 10 3e be 05 16 c6 bd ed d6 8c 3d
       0.07750458 -0.1856103 -0.09672169 0.06876931
0000d0 43 dd 33 3e 7e f8 60 3e cb b8 fc bd c9 5e f3 bc
       0.17564873 0.21969792 -0.12339934 -0.029708283
0000e0 54 98 87 be 24 80 d6 3b c6 8f 97 be 46 76 cb 3c
       -0.26483405 0.0065460373 -0.29601878 0.02483667
0000f0 e5 89 18 3e 7e e4 60 bd 3a 4c f0 bc bb f9 09 3e
       0.14896353 -0.054905407 -0.029333223 0.13474171
000100 5d a8 36 be 52 7c 72 3c e7 c8 a4 3b d4 c0 2e 3d
       -0.17837663 0.014800148 0.0050288322 0.042664364
000110 6c d5 2a bc 32 be 84 be 91 ac 8a 3e cd 88 0d be
       -0.01042686 -0.25926358 0.27084783 -0.13821717
000120 9f 02 44 3e 77 9a 08 be 6e cf 6c bd a6 c5 a8 bd
       0.19141625 -0.13340174 -0.057815008 -0.082408234
000130 73 4b c7 3c cf f2 5f 3e 97 c1 99 bd 48 d4 1a be
       0.02432797 0.21869968 -0.075076275 -0.15120041
000140 cf ca 9e bd 09 08 e2 bd 25 72 28 be 04 4d 66 3d
       -0.077535264 -0.11036689 -0.16449793 0.05622579
000150 ce ff 3a 3d af 17 8e bd bb 58 21 3e d6 e4 17 be
       0.04565411 -0.06938111 0.15756504 -0.14833388
000160 51 92 a5 3d e5 b9 fe 3d cc ae 5b 3d 37 d1 93 bd
       0.08084548 0.124378 0.053633496 -0.07217639
000170 ae 54 35 be 92 78 ae 3d 4b 2e f5 bd ea 5b 99 bd
       -0.17708084 0.08519091 -0.1197172 -0.07488234
000180 6d 0d 24 be 46 2a 45 bb 1f 21 28 bd 33 86 bc bd
       -0.16020747 -0.0030085011 -0.04104721 -0.09205284
000190 92 c6 94 be 06 ad ae bd 1c b5 81 3e 47 29 a9 3c
       -0.29057747 -0.08529095 0.25333488 0.020649565
0001a0 7f e5 83 3d 49 7a bc 3d 7a 15 b1 bd be 77 28 bd
       0.06440257 0.092030115 -0.086466745 -0.04112982
0001b0 cc 8f 3d be 6e 26 09 3e 8f 00 42 be 55 71 4c bd
       -0.18511885 0.13393566 -0.18945526 -0.04991277
0001c0 f4 40 40 3e e1 98 4c 3e c6 73 3a 3e 0f ea 02 be
       0.18774778 0.19980194 0.18208227 -0.12784599
0001d0 b8 4d 2a 3e 36 28 a3 3d 48 d3 05 3e 56 9e 92 be
       0.1663121 0.07966654 0.13068879 -0.28636426
0001e0 67 1f 8f 3d 1d f7 1c 3e c4 5a 0a bd 45 b5 5f 3e
       0.069884114 0.15328641 -0.033777967 0.21846493
0001f0 9d 86 2f 3e 9e f0 52 be cc cc 45 ba 85 c7 f9 bd
       0.17141195 -0.205996 -0.0007545471 -0.121962585
000200 5d 55 7d 3e f6 84 a6 bd 80 45 09 bc 3e e0 87 be
       0.24739595 -0.08130829 -0.0083783865 -0.2653827
000210 e5 44 6d be 15 4e 38 3e 70 71 d9 bc 50 44 de bd
       -0.23170812 0.17998536 -0.026543349 -0.10852873
000220 45 3b 6c bd d2 b2 2b 3e 6c d9 55 3d de d6 53 3e
       -0.05767371 0.16767433 0.052209303 0.20687434
000230 b2 11 3e be 10 cf 72 3e d2 9f 46 3e 1b af 25 bd
       -0.18561438 0.237118 0.19396904 -0.040450197
000240 e3 28 16 3e ab d0 ba bd 8b 9b df bd db 38 21 bc
       0.14664035 -0.091218315 -0.10918339 -0.009840216
000250 be 6f 5a 3c 1b 15 03 3e d7 20 d2 3d 00 cd 4f bd
       0.0133323055 0.1280102 0.1026017 -0.050732613
000260 c6 01 11 be 21 16 a1 bd f3 24 69 bd 0e fa aa bd
       -0.14160833 -0.07865549 -0.056920003 -0.083484754
000270 f6 33 48 be ab 69 a9 bc c5 3d 95 3e ab 02 86 bd
       -0.19551072 -0.02068027 0.2914869 -0.065434776
000280 c3 31 e0 bc e2 12 80 be 8f 07 7e be 78 f4 5f bd
       -0.027367478 -0.25014406 -0.24807571 -0.054676503
000290 b7 0c f7 bc 50 90 2b 3e 44 e2 03 3d ef cb 37 bd
       -0.03015743 0.1675427 0.032198206 -0.04487222
0002a0 3e 34 6d 3e 19 00 73 bd 62 f4 4a 3e 5f a8 34 bd
       0.2316446 -0.059326265 0.19819787 -0.044105884
0002b0 8a a2 d9 bc 8e 49 05 be bd 50 c3 bd 9e c3 88 be
       -0.026566762 -0.1301634 -0.09536884 -0.26711744
0002c0 66 89 d6 3d 3c 86 38 3e e2 f8 97 be bf 9a 8f 3e
       0.104754254 0.18019956 -0.2968207 0.2804775
0002d0 ac 6a 5e be fc 98 4f bd 7e 49 8e bd 3e e8 94 be
       -0.2172038 -0.050683007 -0.06947611 -0.29083437
0002e0 8a 6b 58 be ba 09 a4 b9 be 2e 37 be d5 1a 4b 3e
       -0.21134773 -0.00031287764 -0.17888924 0.19834454
0002f0 72 c7 68 3d 94 c8 4e be 33 81 5e be 9e 00 3f 3d
       0.05683083 -0.20193702 -0.21728973 0.046631448
000300 6e 30 55 be 5e 27 32 be 14 f3 fa bd 88 af 60 3e
       -0.20819256 -0.1739783 -0.12253395 0.2194196
000310 14 13 b5 bd 48 47 fc 3d 30 b8 f9 3c 30 dc 67 bd
       -0.088415295 0.12318283 0.030483335 -0.05660647
000320 86 79 36 3e c0 7b e7 bb 58 f1 68 3d 00 e0 38 bb
       0.17819795 -0.0070643127 0.05687079 -0.0028209686
000330 bc 6d c1 bd 88 49 0a 3e 24 ab 17 be 24 62 70 3e
       -0.09444758 0.13504612 -0.14811379 0.23474938
000340 20 76 47 bd 84 35 c7 3d ca 84 6a be 70 cd f0 bc
       -0.048696637 0.09727004 -0.22902218 -0.029394835
000350 aa 72 00 be 1a 4a 7b 3e 48 9c e9 3d 0e d3 3f be
       -0.12543741 0.24539986 0.114067614 -0.18732855
000360 e0 d3 a9 3c 90 28 71 bd 94 93 fe bd f6 4c 07 3e
       0.020730913 -0.058876574 -0.12430492 0.13212952
000370 66 42 2c 3e b0 33 4e 3d b0 a1 b6 3d 18 96 63 3e
       0.16822204 0.05034226 0.08917558 0.22225225
000380 e0 1b db 3c 4a 5c 3b 3e 7e ac 39 be ca b9 4d 3e
       0.02674669 0.18296924 -0.18132207 0.20090404
000390 f0 be 0b 3e 30 7e a7 3c 08 83 92 3d 0c 36 4b be
       0.13647056 0.020445913 0.071538985 -0.19844836
0003a0 20 5a 88 bd c4 d6 35 3e a0 da 82 bd 84 92 41 be
       -0.06657815 0.17757708 -0.06389356 -0.18903548
0003b0 b8 70 5e be a4 19 45 3e fe e1 62 3e 50 b0 a7 3d
       -0.21722686 0.19248062 0.22156522 0.08187926
0003c0 40 84 46 bd c8 d3 3d 3e 7e 21 11 3e 80 03 d1 bd
       -0.048465967 0.1853782 0.14172933 -0.10205746
0003d0 8c ce 1a 3e c0 3e ca bc 1a e9 58 be 74 da 5a be
       0.15117854 -0.024688125 -0.21182671 -0.21372396
0003e0 1a 79 03 3e 5c ce 33 3e 2a 3b 08 be b4 a7 e3 bd
       0.12839165 0.17559189 -0.1330382 -0.11115971
0003f0 c0 01 86 3d 14 65 3b be d0 dc 19 be 0a 86 31 3e
       0.065433025 -0.18300277 -0.1502564 0.17336288

conv2.root f4 [32, 64]
000000 ef 6c 2b be 51 24 d5 3d 12 7c ad bd e1 fd 7d be
       -0.16740774 0.104073174 -0.0847093 -0.24803878
000010 b6 6b 22 3d fd bc 0a 3e e9 eb 42 be e6 82 08 3e
       0.039653502 0.13548656 -0.19035305 0.13331184
000020 d6 b8 a1 3d 8d 8e fd 3d 6a ab 62 3e a3 6f 2c 3e
       0.07896583 0.12380705 0.22135702 0.16839461
000030 3e c2 19 be b7 e4 f2 bd 46 0e 8e 3d 45 f4 e2 3c
       -0.15015504 -0.1186003 0.06936316 0.027704367
000040 39 5b 18 be a9 6a 2c 3e c7 cf 33 3e 78 e7 aa bc
       -0.14878549 0.16837563 0.1755973 -0.020862326
000050 bf 14 82 3e 2d 47 9a 3d de 59 f0 3d 64 9d 17 3e
       0.25406453 0.07533107 0.11735891 0.14806134
000060 0c 2e ce bd 1f 66 cf bd 9c 61 d9 3d a6 0f 71 3d
       -0.100673765 -0.101269 0.10614321 0.058852814
000070 15 a0 3a 3e e0 3c 93 3e b7 95 de bc 66 54 09 3e
       0.18225129 0.2875738 -0.027170999 0.13411102
000080 e1 f2 b8 bd d0 d7 38 3e d2 8b 6c be 20 dc 78 3e
       -0.090307005 0.18051076 -0.23100212 0.24302721
000090 08 52 17 be 66 49 b9 3d 71 dc e0 3d ce 59 17 be
       -0.14777386 0.09047203 0.10979546 -0.14780352
0000a0 c4 d9 15 be 69 35 d0 3b 4b ea 93 3e 94 5c 6a 3e
       -0.14633852 0.0063540232 0.2888969 0.22886878
0000b0 e3 94 17 be 93 54 88 3d f2 c2 83 be f5 4b 13 3e
       -0.1480289 0.06656756 -0.2573467 0.14384444
0000c0 b9 f0 95 3e b9 00 ef 3c 06 5c 47 3e 69 0c eb 3d
       0.2928522 0.02917515 0.19468698 0.114769764
0000d0 22 8d 9a be e5 85 eb 3d 0b 81 e1 bd 1e f8 e5 3d
       -0.301858 0.11500148 -0.11010941 0.11228965
0000e0 88 63 d9 3d 64 37 08 3d c1 12 b8 bd dc 1c 97 3e
       0.10614687 0.03325595 -0.08987952 0.29514205
0000f0 91 8c 24 be d5 d9 79 be 1e c2 74 3d cb e8 87 3d
       -0.16069247 -0.24399503 0.059755437 0.066361986
000100 b8 0a 56 bd 7d e5 12 be 9f 95 32 3e 6b a6 a5 bd
       -0.052256316 -0.14345355 0.17439888 -0.08088382
000110 80 b6 59 3c e8 99 d0 3c 9f 8c 0f be cd c0 43 be
       0.01328814 0.025464013 -0.14018486 -0.19116516
000120 f3 88 fc bd 3c e6 5a 3e dd c0 28 3e 23 f9 72 3e
       -0.123308085 0.2137689 0.16479822 0.2372785
000130 38 07 59 3e 50 d4 00 3e 9a 57 79 3e bc 3a b0 3d
       0.2119416 0.12580991 0.24349824 0.08604953
000140 55 66 ca bd a1 04 92 bd a4 43 f6 3d 03 da 63 be
       -0.098827995 -0.07129789 0.1202462 -0.22251134
000150 9d df dc 3d 2d a7 d2 bb 66 28 56 3d 80 0a 62 3e
       0.10784838 -0.0064286203 0.05228462 0.22074318
000160 fb 29 f0 bd 26 0f 1a be 74 8d f9 3d 47 92 27 be
       -0.11726757 -0.15044841 0.12185183 -0.16364394
000170 3f 85 8c 3c 69 f0 0f bd c9 44 84 3e 6d 5d 51 bd
       0.01715338 -0.035141382 0.2583373 -0.05111449
000180 68 8c 83 bd 42 c3 61 be 52 d8 2a 3e d5 c7 4d be
       -0.06423265 -0.22047141 0.16684082 -0.20095761
000190 7f 37 1e 3d fd 52 52 3e 9f 49 5d be 9f 59 4e be
       0.038627144 0.2053947 -0.21610115 -0.20151375
0001a0 8d d9 68 3d 11 42 41 3e 06 e5 26 3e 6e fe 3c be
       0.056848098 0.18872859 0.16298303 -0.18456432
0001b0 5a 29 55 3d 96 c8 91 3d d5 cd 56 3e 22 f4 9e bd
       0.05204139 0.07118337 0.20976956 -0.077614084
0001c0 31 20 cf bc c3 43 a2 3d 5c fa 16 be 63 d7 5c be
       -0.025283905 0.07923081 -0.14743942 -0.21566539
0001d0 10 57 cf bd 73 05 9e 3d 04 89 79 3e 80 7d fc 3d
       -0.10124028 0.07715883 0.24368674 0.12328625
0001e0 45 20 55 3e dc 3b 0b bd bb 13 16 be 12 4b 71 3e
       0.20813091 -0.033992633 -0.14655964 0.23563793
0001f0 5a 75 da bd 78 70 3c 3e 0a 45 e3 3c a6 fb c5 bd
       -0.10666914 0.18402278 0.027742881 -0.09667139
000200 df dc 6d 3e d5 c9 5b 3d 57 d3 8c 3e 23 a2 6e be
       0.23228787 0.05365928 0.2750499 -0.23304038
000210 a5 31 38 bc f0 7a 8e bd e7 e3 3c 3e ed 63 91 3e
       -0.011242305 -0.06957042 0.18446313 0.2839655
000220 3a 70 4f 3e 14 f9 cf 3b 7c 69 f8 3c 6a 2c c7 3d
       0.20257655 0.006346831 0.030323736 0.09725268
000230 4e 1c d4 3d 0f ca 03 3e c0 31 18 3e 4f 07 8c bd
       0.10356961 0.12870048 0.14862728 -0.068373315
000240 a4 ad 79 3e 88 f6 8c 3e 3e 99 84 bd 5c 3b 2e bd
       0.24382645 0.27531838 -0.06474541 -0.04253708
000250 8e 75 67 3d ff fb b0 bd 7f 52 8f bd 1a ec 58 3c
       0.056508593 -0.086418144 -0.06998157 0.013239885
000260 28 88 77 bd db da 32 3d cb 7a 92 be 6c 6b 82 3b
       -0.060432583 0.043665748 -0.2860931 0.003980091
000270 51 69 03 3e 9b 9b 20 be ac 83 8f 3e be f1 d5 bc
       0.12833144 -0.15684359 0.28030145 -0.026116248
000280 c4 32 1d be 66 f1 e8 bd 25 56 ba bd 85 a5 23 3e
       -0.15351397 -0.11374168 -0.09098462 0.1598111
000290 d7 0b 2a 3e ea 26 0f 3e ad 17 0a 3d a6 e3 1a 3e
       0.16606079 0.13979688 0.033713985 0.15125903
0002a0 52 b8 6d 3e 15 fc 03 3e d2 e2 14 be 8c 36 a8 3d
       0.23214844 0.1288913 -0.1453965 0.08213529
0002b0 11 2a 34 be 04 6b 32 be 83 f4 5f be 37 57 69 3c
       -0.17594172 -0.17423636 -0.21870618 0.014241985
0002c0 dd fe 65 bd fa 78 3d be c3 ff d6 3b ae 4b 61 3e
       -0.05615126 -0.1850318 0.006561251 0.22001526
0002d0 64 5e 17 3e 1e 31 09 be 7e e7 0e 3e 42 cd 26 3e
       0.14782101 -0.13397643 0.13955495 0.16289237
0002e0 6e 58 01 3e 9f 0c b7 bd a1 8b f0 bc ff cf 1c 3e
       0.1263139 -0.08937954 -0.029363455 0.15313719
0002f0 41 c7 24 be 70 7a 3c 3e 9b bf 00 bd d2 7f 46 bd
       -0.16091634 0.18406081 -0.03143273 -0.048461743
000300 60 cb c8 3d f2 58 8d 3d 2c ac 97 3d a0 ea 5a 3e
       0.09804416 0.069017306 0.07405886 0.21378565
000310 60 9f 11 be 1f 3d 13 3e f8 27 0c 3e f4 29 9f be
       -0.14220953 0.14378785 0.13687122 -0.31086695
000320 88 ec 94 be 05 d5 9a 3e 01 63 33 3e af 87 6c be
       -0.2908671 0.30240646 0.17518236 -0.23098634
000330 2e b1 8e 3e 28 25 2c be 34 c2 84 be d2 cd 8d 3c
       0.27869552 -0.16811049 -0.25929415 0.017310057
000340 9e 9b 87 be 77 76 83 3e 76 29 4e 3e da 8f d8 bd
       -0.26485914 0.2567632 0.20133004 -0.105743125
000350 a1 34 96 be 5e 1d 8e be 38 64 fc 3d c5 ec 4a 3e
       -0.29337028 -0.2775678 0.12323803 0.19816883
000360 6b d1 c2 bd 66 50 ef 3d a5 8c 36 be 5d 85 00 3e
       -0.095125996 0.11685257 -0.17827089 0.12550874
000370 3a c7 72 bb 67 2e 89 be 7b 95 42 be ff 6d 05 3e
       -0.0037045018 -0.26793215 -0.19002335 0.13030241
000380 7c c6 2e 3e 8f 1a 20 be 4d f0 73 3e 08 5a 58 bd
       0.17067903 -0.15635131 0.23822136 -0.052820235
000390 28 60 75 3d a5 30 c2 3d 00 d7 18 be 89 4c 23 be
       0.059906155 0.094819345 -0.14925766 -0.15947165
0003a0 1b 28 33 3e 00 60 80 3c f8 44 8d bd 74 24 0d 3e
       0.17495768 0.015670776 -0.0689792 0.13783437
0003b0 c1 92 87 be 56 28 1a bd a9 bd 35 3e c2 e8 4c 3d
       -0.26479152 -0.037636124 0.17748131 0.050026663
0003c0 38 dd 54 be 8d 5e 16 3e e5 25 1d be 34 ac 0d 3d
       -0.20787513 0.14684506 -0.15346487 0.034588054
0003d0 44 1d 85 3d 6f d4 fc 3c e2 7f 78 bb 88 36 b0 3d
       0.064997226 0.030863015 -0.003791802 0.08604151
0003e0 7a 8c b5 3d 30 cf 04 3e e1 83 19 3e 13 21 07 3d
       0.088646844 0.12969661 0.14991714 0.032990526
0003f0 48 cc 90 be ff 84 7e 3e 32 8b 88 bc a5 92 82 bd
       -0.28280854 0.24855421 -0.016667936 -0.063756265

conv2.bias f4 [64]
000000 83 39 2c bd 68 32 a7 bc 69 af 26 bd 08 fd 6e 3d
       -0.042047035 -0.020409778 -0.040694628 0.05834678
000010 a5 13 98 bd 49 3d 87 3d 02 09 0f 3d 8a 0e d9 bc
       -0.07425622 0.06603486 0.0349207 -0.02649619
000020 27 e2 61 3b da 17 fd 3c f4 59 dc bc 4e 90 09 bd
       0.0034467073 0.030895162 -0.026898362 -0.033584885
000030 c0 be 86 3d 45 44 41 bd 46 0c 2b bd 94 a7 c1 bd
       0.065793514 -0.047184248 -0.04175975 -0.09455791
000040 c4 09 2c bc 2a af d6 3d fc bb 95 3d 70 76 4d 3d
       -0.010500375 0.10482629 0.07311246 0.05016178
000050 67 ab 5b bd ec 1b 7a bd 05 bb 31 3d 98 22 6b 3d
       -0.05363026 -0.061061785 0.043391246 0.057406038
000060 78 dc df 3d 7a 42 9d bd 91 46 7d 3c 1c d3 71 bd
       0.10930723 -0.07678695 0.015458719 -0.05903922
000070 94 92 e4 bc c0 d0 46 bc c2 c3 28 bd 97 3e 3f 3d
       -0.027901925 -0.012134731 -0.041202314 0.04669055
000080 4d 5c a9 3c 36 46 81 3d a2 7f 7e 3d 67 a1 47 bd
       0.020673895 0.0631222 0.06213344 -0.04873791
000090 cf 20 60 3d f1 30 07 3d 67 fe 4d bd 61 fd 4b 3d
       0.05471879 0.03300566 -0.050291445 0.049802188
0000a0 5d c9 4f bd 20 14 b0 ba ce a5 53 bd 89 54 a8 3d
       -0.050729144 -0.0013433732 -0.051671796 0.08219249
0000b0 14 d9 13 bd e1 3c 61 bd bb 46 ae 3c 17 bf bf 3c
       -0.036095694 -0.0549897 0.021273961 0.023406548
0000c0 2e 2e 74 bd ba 56 85 bd de ba e0 bd ea b9 9c bc
       -0.059614353 -0.065106824 -0.10973142 -0.01913162
0000d0 9c f8 0e 3d 2c 05 f7 bc ae 2f 09 bd a8 64 2d 3d
       0.03490506 -0.030153833 -0.033492737 0.04233232
0000e0 ed 8f 48 3d 0f e4 b3 3c b7 ce 3c 3d 32 a8 9f bc
       0.048965383 0.021959333 0.046095576 -0.019489381
0000f0 4e c3 e2 bd 90 3c d5 3c cd 20 2c 3d a8 71 66 3d
       -0.11072408 0.026029855 0.04202347 0.056260735

lin.weight f4 [2, 64]
000000 84 88 85 bc 23 9e b1 bd 09 94 01 be 92 28 b1 3c
       -0.016300447 -0.0867274 -0.12654127 0.02162579
000010 2f b1 bd 3c 46 d6 be 3d 2a 99 36 3d c2 a6 31 3d
       0.023155777 0.09318213 0.044579662 0.043371923
000020 f7 db 86 bd 5c 01 89 3a 11 e8 c7 3c 05 a7 20 bd
       -0.06584924 0.0010452676 0.02440265 -0.039221782
000030 a0 01 91 3c 16 c6 03 3d 12 aa b1 bd b3 92 3d be
       0.01770097 0.03217133 -0.086750165 -0.18512993
000040 a0 47 1d bd 02 78 15 3e 04 2e 82 bd 54 94 cd 3d
       -0.038398385 0.1459656 -0.06356433 0.10038057
000050 23 37 18 be 16 28 b1 3d 70 97 42 3d 48 22 01 3e
       -0.14864783 0.08650224 0.047507703 0.12610734
000060 88 f7 83 bc 0e 4a 6b bb 6c 0b eb bc 0f fe 96 bd
       -0.016109243 -0.0035902294 -0.02869197 -0.073726766
000070 72 c5 c2 bd f7 fc bb 3d 95 d3 14 be d8 3c 27 3c
       -0.09510316 0.091791086 -0.14533837 0.010207377
000080 b8 4f 26 bc 0b 36 08 3e ab 3a 25 3e 21 cb 37 3d
       -0.010150842 0.13301866 0.16135661 0.044871453
000090 13 c3 62 bd be 54 9b 3d a7 fb 1d be 8b 8f db 3c
       -0.05536182 0.07584523 -0.15428029 0.026801845
0000a0 5b 16 3a 3d cc f5 b6 3d 7c 0c 07 be 92 4d 98 3d
       0.045431476 0.08933601 -0.13188356 0.0743667
0000b0 a8 b8 40 bd bb 8b e3 bd 3b fa b6 bd 1e 67 8a bd
       -0.047051102 -0.11110636 -0.089344464 -0.06757949
0000c0 d4 8b 7b bd dc 07 06 3c ad 9e 04 bd 14 a9 b0 bb
       -0.061412647 0.008180585 -0.032377888 -0.0053912494
0000d0 74 c7 97 3d 0a ca e2 bc 79 6e b1 bd f1 c5 9d 3d
       0.074110895 -0.02768423 -0.08663649 0.0770377
0000e0 73 c2 96 bd e0 cb d3 3d d7 7e 6d 3d f2 c9 84 3c
       -0.07361307 0.103416204 0.057982292 0.016209576
0000f0 4e cb 91 3d 48 48 0b 3d 8e 13 09 3e 4c f6 c2 3d
       0.071188554 0.03400448 0.13386366 0.09519634
000100 7c 85 a8 bd 2e 54 21 3d 8a 22 6b 3d 70 7a 50 3d
       -0.08228585 0.03938692 0.057405986 0.050898015
000110 5f 59 64 bc 10 13 99 3d e0 8d d1 3d c8 5c 9b 3d
       -0.013937323 0.07474339 0.10232139 0.07586056
000120 22 a7 7c 3c 00 70 c7 b5 06 fc 05 bb 8b b3 e2 3c
       0.015420707 -1.4859252e-06 -0.0020444407 0.027673503
000130 30 4e b4 3c 31 51 c0 3c a7 d0 29 3e 10 0b cc bb
       0.022009939 0.023476215 0.16583501 -0.0062269047
000140 30 0a 76 3d 43 33 c5 3c 58 80 cc bc 03 8e 37 be
       0.06006831 0.024072295 -0.024963543 -0.17925267
000150 04 59 11 bc d2 a1 82 3d 7e 70 87 bd 9b 16 14 be
       -0.008871321 0.06378521 -0.06613253 -0.14461748
000160 71 dd b2 bd 34 73 2b bb 4b 6c ad 3d 3e ed 09 3e
       -0.08733643 -0.0026161196 0.08467921 0.13469407
000170 2e 70 10 bd 94 11 ac bc 63 1f dc 3d 36 c1 b7 bd
       -0.035263233 -0.021004476 0.10748174 -0.08972399
000180 f3 3b 80 3d 26 9a 11 bd f1 8c a1 bd 2b f6 a8 3d
       0.062614344 -0.035547398 -0.078882106 0.08250078
000190 5c 12 10 bd 63 60 f4 bc 37 47 a4 3d 26 32 bb bc
       -0.03517376 -0.029831117 0.08021396 -0.022851061
0001a0 47 88 ec 3d 4a f7 e5 bc fa 61 16 3e 98 37 cc 3d
       0.1154943 -0.028072018 0.14685813 0.09971541
0001b0 da ca 9f 3d e7 60 f4 bb ac 4a ac bc 74 af d8 bb
       0.07802363 -0.0074578407 -0.0210317 -0.0066127125
0001c0 e1 dd 27 3e f0 61 28 3e d0 af 6e 3d a0 dd 7f bd
       0.16393234 0.1644361 0.058273137 -0.062467217
0001d0 c5 f9 fc bc 2e cc 88 3d 2c f5 d2 3a 20 74 05 be
       -0.030880818 0.06679569 0.0016094795 -0.1303258
0001e0 81 ec 22 bd 26 5b 72 3d a3 28 c5 bd da c4 02 3e
       -0.03977633 0.059168957 -0.096268915 0.12770405
0001f0 b9 fb 01 3e 4b 1c 9f 3d 71 67 0c be cf c0 04 3d
       0.12693681 0.07769068 -0.13711335 0.03241044

lin.bias f4 [2]
000000 a7 2a 59 bd 51 71 b1 bd
       -0.053019192 -0.086641915
