best_model.pth (torch, 90340 bytes, 8 tensors)

conv1.weight f4 [27, 40, 16]
00000000: 3a03 a6bd 6afd f8bc 6fb9 c83d 30b9 3cbd
00000010: f2c9 213d d317 a33c a481 53bd ae3b b73c
00000020: 1fbf 52bd 5680 f93c 6664 0ebd 6bfe adbc
00000030: dc75 7cbd b156 60bd 260e 95bb d26c b13d
00000040: 842d 67bd 0557 b639 9428 a2bd 1a6d 643d
00000050: 4e91 043c 4170 6a3d 9a81 9d3c ec0f babc
00000060: 6204 2abc 9870 44bc 9796 d83c bd8f 8abc
00000070: bb5b 703d 3865 f13c cd4a ea3c 4cfb 83bd
00000080: 6a28 e2bd 5b65 763d f9b6 d5bd b5fc 403d
00000090: a4c8 a33d 389f 263a 36f9 ff3b 8d30 49bd
000000a0: 0ee1 0bbd 924a db3d 2aaa 1dbc 5fbe 28bd
000000b0: 3186 2b3d 5f8b 11bd b952 94bd 75e2 88bd
000000c0: dc72 35bd 13c4 8f3c 3d19 f43c 029b c83c
000000d0: e4d1 20bd 9c48 87bd c34f 1e3d 7c24 d63d
000000e0: c05c 99bb d0fb 5b3d 0510 623c 665b bebb
000000f0: 51d3 76bd f031 5b3c 87a2 a13c 689e 88bd
00000100: d3c4 f4bd 72e7 a2bd 0ea2 d8bd f7a9 0e3d
00000110: 23fe ad3d e8a7 953c 8cf5 613d 3ec9 4c3c
00000120: 873c 94bc 7a5a 343d c652 2a3d 95e6 0c3b
00000130: d141 b13c 4918 d5bd 97e4 b8bc 0d0c a5bb
00000140: c81f c7bc 703b cabc e22b 5f3c 4dc7 6fbd
00000150: f76b a6bc 3faf ba3c d2c0 b9bd 88c3 323d
00000160: 27c3 6ebd ea04 4bbd 0ab7 a0bd 41bc 0a3d
00000170: 126c b33d e51a 2bbd e292 f53c 42aa e63c
00000180: 65c5 2abd a7c0 f03c b022 6a3d d564 35bd
00000190: 2156 50bd 7c17 b7bd 6aae 283d 45f5 e43a
000001a0: d197 aabd 0174 5a3d a3db 893d 1bee 30bd
000001b0: 78a5 b8bd bf53 dbbc 1c2d 49bd f2cf c43d
000001c0: 22f7 0a3e 348b 42bd c106 dbbd 1d77 2c3b
000001d0: 3a28 63bc 891c 16be 9ec8 1abd 3765 17be
000001e0: 8634 803c cf64 d2bc 273a 08be e96d adbd
000001f0: 719d ad3d 9750 a7bc c6c8 103e 2b5e 813d
00000200: 158c 89bc 0cd2 a53d 1f59 783d 9fa8 423d
00000210: c8c4 12bc e98e 81bb b06b 703d 9296 bcbc
00000220: 6f54 96bc 7834 903d 5194 20bd 7420 f03d
00000230: b9e7 cb3c 2a62 fdbc a314 88bd 3c18 d0bd
00000240: 806c b0bd 2d67 01bd e86b 98bd 8c84 813d
00000250: 677e 7abc 0bb3 58bd 683e 2abd 5c48 de3a
00000260: 1350 fdbc 1e23 153c e6bd 8cbd aad2 a0bd
00000270: bcac 00bc b8d3 efbd 3555 10bd c86c 31bd
00000280: bb88 d1bd c7c8 d03d 2dc3 543c 5eb9 9c3c
00000290: 8143 0fbc 820b e1bc 7b0e 3b3d bc81 e13c
000002a0: 39de b9bb 071e 143e dcd2 13be dd72 383c
000002b0: 6157 933c 7f16 c1bd 10bb 143c 6c7b 043c
000002c0: 7172 6ebc 41b6 07bd 2396 d23d 2ec1 f8bc
000002d0: dbca 073d 8dde ae3d e5b7 e63c f61f d93c
000002e0: 1177 cfbc 9f18 803d a5cf 813c 79a1 223d
000002f0: de3c a3bd 9417 d33d 82ac efbd 4473 663d
00000300: ea20 9d3b c5b6 17bc 732c 193d f9fe 293d
00000310: a3c6 263d e6bb 1e3d aef8 17bd e295 e2bd
00000320: 74fa 003d 46af 603d 6ec5 fb3d db66 e03b
00000330: 5dee 4a3a 8f0e 063d 3461 7dbc 4e18 613d
00000340: 51d8 d03d 5b65 8dbd 835f d73c 624c fe3c
00000350: 43b1 193d d20a 47bd fa49 cabd 96d2 24bc
00000360: f1b9 1ebd 5998 1f3c d18d 85bd e091 473a
00000370: 2db4 813d f4f9 093c d2b6 e43d a089 82b9
00000380: b0d5 593b 6fd5 5ebc cdfb cdbc 23cf 4f3d
00000390: a617 8fbd 4453 8abd 6262 04be 2c46 9b3d
000003a0: 0bd0 bc3c f52e d9bc 56cf b3bd 6cf9 8bbd
000003b0: 86fb a4bd a9a8 8c3d f893 783d 7f62 b4bc
000003c0: a959 0dbc 5d6d f33b 142d a63c 8541 013e
000003d0: e124 2abd 9591 d93d ae64 ba3d 7553 bcbd
000003e0: 9fb3 acbd d99f 8c3d a89a aa3b 1d17 f63d
000003f0: 983a 5a3d 80b3 043d 97e8 ed3c b44f e4bc
-0.08106084 -0.030394275 0.09800994 -0.046075046 0.03949923 0.019908821 -0.051637307 0.022367325
-0.0514518 0.030456703 -0.034763716 -0.02123948 -0.061635837 -0.054770175 -0.0045488058 0.08663334
-0.05643989 0.0003477858 -0.07917896 0.05576811 0.008091284 0.05723596 0.019226838 -0.02271267
-0.0103770215 -0.011989735 0.026438994 -0.016914243 0.05868123 0.02946721 0.02860012 -0.064444155
-0.110428646 0.060155254 -0.1043529 0.047116 0.079972535 0.0006356123 0.0078116907 -0.049118567
-0.034150176 0.107075825 -0.00962309 -0.041197177 0.04187602 -0.035533305 -0.072423406 -0.06683818
-0.04429899 0.01754955 0.02979719 0.024487976 -0.039262667 -0.06605646 0.038650285 0.104561776
-0.004680246 0.053706944 0.013797765 -0.0058092354 -0.06026012 0.013378605 0.01973082 -0.066708386
-0.11951604 -0.07954301 -0.105777845 0.03483006 0.08495738 0.01826854 0.055165812 0.012499152
-0.018095268 0.044031598 0.041582845 0.0021499742 0.021637829 -0.10405023 -0.022569938 -0.005036837
-0.024307147 -0.024686545 0.013621302 -0.058539677 -0.020315154 0.022788642 -0.09069981 0.043643504
-0.05829158 -0.049565233 -0.07847412 0.03387094 0.08760847 -0.041773695 0.029977266 0.028157357
-0.041692156 0.029388739 0.057161987 -0.044285614 -0.05086339 -0.08940026 0.04118196 0.0017468116
-0.08329738 0.053333286 0.067313455 -0.043195825 -0.09015936 -0.026773332 -0.049115285 0.09609975
0.13570836 -0.047496036 -0.106946476 0.0026316114 -0.013864571 -0.14659323 -0.03778898 -0.14784704
0.015650045 -0.025682835 -0.13303433 -0.08468229 0.08477295 -0.02042417 0.14139089 0.06316789
-0.01679043 0.08096704 0.060631867 0.04752409 -0.008958049 -0.003953804 0.05869645 -0.023021016
-0.018350808 0.070412576 -0.039203946 0.1172494 0.024890767 -0.030930597 -0.06644561 -0.10160872
-0.08614445 -0.031592537 -0.074424565 0.063241094 -0.015288926 -0.052905124 -0.04156342 0.0016958821
-0.030921971 0.009102611 -0.06872158 -0.07852681 -0.007853683 -0.11710304 -0.03523751 -0.043316633
-0.102311574 0.10194545 0.012985987 0.019131359 -0.0087441215 -0.027471308 0.045668107 0.027527682
-0.005672243 0.1446458 -0.14435905 0.011257854 0.017986001 -0.09428119 0.009077802 0.008086067
-0.014553652 -0.033132795 0.102825426 -0.030365553 0.033152442 0.08538542 0.02816386 0.026504498
-0.02532533 0.06254696 0.015846083 0.039704774 -0.07970594 0.103072315 -0.11702825 0.05626227
0.0047951834 -0.009259884 0.037395906 0.041502926 0.04071678 0.038753413 -0.037102394 -0.11063744
0.03148885 0.054854654 0.12293516 0.006848199 0.00077412074 0.032728728 -0.01546507 0.05495482
0.10197509 -0.06904098 0.02629066 0.031042282 0.037522566 -0.048594303 -0.09877391 -0.010059973
-0.038751546 0.009740912 -0.0652119 0.00076129846 0.06333194 0.00842141 0.11167683 -0.0002489807
0.003323894 -0.013600691 -0.025144482 0.05073465 -0.069869325 -0.06754163 -0.12928155 0.075817436
0.023048421 -0.026511649 -0.087797806 -0.06834683 -0.08055787 0.06868107 0.06068799 -0.022019623
-0.008627334 0.0074288086 0.020285167 0.1262265 -0.041539077 0.10623471 0.091012344 -0.09195606
-0.084326975 0.06866426 0.0052064247 0.12016127 0.053278536 0.032397747 0.029041572 -0.027870037

conv1.comp f4 [55, 27]
00000000: a9ba 42be 25c0 19be 25f8 14be a5c3 98be
00000010: f8c3 f13d 2552 34be 6085 623d 5b38 95bd
00000020: c54c a53d be23 b43e ae24 febd 3b3c 67be
00000030: 66fa 07be c2aa 0d3d a2fd 963e cbd6 4c3d
00000040: b556 803e 581a 00be cf82 92be 787e 66bd
00000050: 7f8b 3dbe 6020 afbd 9255 b43d 82b1 87bc
00000060: a0c5 e5bd 085f e63d 0c3a 80be 1366 323d
00000070: df3f 2dbc 96e5 d9bc 5e4b 8f3b 62e6 db3c
00000080: 96e9 043d 2300 703c 6301 8cbb dba1 763b
00000090: ea18 963b f531 2abc 8c2a 0bbc 2d23 eb3a
000000a0: 2090 c7bb 4e6e 1bbd 41fb 09bb ee08 91b9
000000b0: ca51 8eb9 d01a 0cbc 1c1a a03b f9c6 b8bb
000000c0: 1490 11bc 0bd5 c33a 5a68 f8b9 782f 62bb
000000d0: 4f4e 8c3d 2253 013b eb99 8c3e 867c 053e
000000e0: 01bf 003e da02 9c3e 6af3 53bd d716 173e
000000f0: 654c 2e3e b27b fdbd 6e68 103d fdc1 a0bd
00000100: 9131 79be bd22 21be 62a3 c0bd a153 62be
00000110: d189 603e 1bbc 0c3c 2b4b 7b3e ff07 a8bd
00000120: 4f01 81be 3ae0 e3bd 6a9d 5d3e 8e0b b3bd
00000130: ff6f 56be e8da 3abe da4f 60be f4ab 30bd
00000140: 40d8 20be bc6c 27bd a0c3 f937 8562 4c3d
00000150: 0736 213b 5e73 24bb 40ed 4139 75e6 853b
00000160: be3a e6bb 5f66 0d3d 2f20 c9ba 88fd 90bc
00000170: e2a6 7e3b d452 0a3b fd44 0c3a 67e3 03bd
00000180: f73c 95bb c406 f3ba bfda 213d 78bf 25bb
00000190: 04f7 2abc 907b be38 1e8a b13b 988d d0bb
000001a0: 5ddd d3bb 7556 0b3c 2111 73bb e14d 2abc
000001b0: 3fcf 06bd c0cb 303e de6b b2bd 51d9 2a3d
000001c0: 62dd 95bd ae8d 913d 7aff 283d aa65 89be
000001d0: b58f 24be f9a0 093e b30c 60be b463 06be
000001e0: 82c1 ac3d ec48 7bbd b1aa a73d f477 52be
000001f0: 47f0 b43d f854 b83d 4d1a 4dbd fdcb bb3d
00000200: f5bf 4dbe 0919 75bc 2b97 3b3e 9727 5c3e
00000210: 853c 013e ba96 55be c87e 9c3d 13c7 1f3e
00000220: 0df3 83be d1de 943d b7e1 0fbe 9c02 00be
00000230: 9c3d ce3d ab90 883e f688 d2bd 1593 b4bd
00000240: 04ce 66bd 369f cd3d f201 b53d efa4 b33d
00000250: 2823 9d3d 746b 63be fe11 13be ad66 5d3e
00000260: 3fe2 bd3d 18a6 19be 716c a4bc 2d0a 22be
00000270: 7279 183c 170f 9ebd 7a00 a7bd 50f5 433b
00000280: eb84 f63c d5bc a8bd 10e3 603e 962f 123e
00000290: 7427 54be 7155 913e 1b5a 683d 1678 a4bd
000002a0: 061a d8bd 9835 c63d e74e f23d 9b1c 8cbe
000002b0: 09b4 953e 4c02 1e3e 4a49 55bd d598 a43d
000002c0: 09b5 a1be 7d79 5a3d cd6f 45be 7572 d83d
000002d0: 4bb8 ca3d ab8b 5a3e ce19 533e 0602 743d
000002e0: 5a89 3bbe e0f2 143e 11bb 953d 918a 94bd
000002f0: 0cf8 8cbe 770a cfbd d6c6 2ebd b5e7 d4bd
00000300: 70c2 363e c21e 4dbd d4ba a83e 9ce7 5d3d
00000310: 8180 2c3c c175 e2bd b385 fbbd 3e21 393d
00000320: cd6b 74be 7137 213e 231f 58be 7b5d 883e
00000330: e97a e33d 7fad 4dbe 63ba 52be 0202 1b3e
00000340: 5cf0 2c3d 62b9 39be c3c3 993d caad fcbd
00000350: 4645 233e 0ce7 2cbe 1f2a 8f3e 43da 773e
00000360: 5d2c dabd cc89 ba3c b385 44be 676a 5fbe
00000370: 406f 793e 915c 62be 3d95 e03d 7530 bebd
00000380: b703 eabd 93e9 2a3e b049 5bbb ba05 003e
00000390: 3317 a63d fef9 efbd baed 4cbe 278d 933e
000003a0: 1326 2a3d b3b4 803e 90d6 97be 2a98 163e
000003b0: 5da3 8c3e b2fb 803d 7d82 22be 10fb 13be
000003c0: cfde 0dbd 9f00 a3bc 1bba 06be 5300 e23d
000003d0: 0e54 683e de8d 673e 751b 7dbe 11d4 5ebe
000003e0: 64bf 883d 44d2 1abb b32e 2cbe 1f43 13bd
000003f0: 36fe febb 7bea b0bd 3f96 603e 0a68 9fbe
-0.19016518 -0.15014704 -0.14547785 -0.29836765 0.11804956 -0.1760946 0.055302978 -0.072861396
0.08071283 0.3518352 -0.1240934 -0.2258157 -0.13279113 0.034586675 0.2949038 0.05000953
0.25066152 -0.1251005 -0.28615424 -0.056272954 -0.18510245 -0.08551097 0.08805384 -0.016564135
-0.112193346 0.112485945 -0.25044286 0.043554377 -0.01057431 -0.026598733 0.004372998 0.026843254
0.032449327 0.01464847 -0.0042726262 0.0037633094 0.0045806067 -0.010387887 -0.008494031 0.001793956
-0.006090179 -0.03794699 -0.00210543 -0.00027663208 -0.00027145288 -0.0085513145 0.004885925 -0.0056389538
-0.008884449 0.0014940811 -0.00047379994 -0.0034513157 0.06850874 0.001973339 0.2746118 0.13035783
0.12572862 0.30470926 -0.05174581 0.14754806 0.1702133 -0.12377109 0.035255842 -0.078495
-0.24335314 -0.15735908 -0.09406163 -0.22102214 0.21927573 0.00858977 0.24540393 -0.0820465
-0.2519631 -0.11126752 0.2164208 -0.08742438 -0.2094116 -0.18247569 -0.21905461 -0.043132737
-0.15707493 -0.04087518 2.9774208e-05 0.049898643 0.0024598853 -0.0025093178 0.00018494297 0.0040863105
-0.0070260456 0.034521457 -0.0015344674 -0.017699018 0.0038856794 0.0021106498 0.0005350856 -0.03219929
-0.0045543867 -0.0018541445 0.039515253 -0.0025291126 -0.01043487 9.082921e-05 0.005418076 -0.0063645355
-0.0064655975 0.0085045 -0.0037089067 -0.010394544 -0.03291249 0.17265224 -0.0871198 0.041711155
-0.07317616 0.071071014 0.041259266 -0.26835376 -0.16070445 0.13440312 -0.21879844 -0.13123971
0.08435346 -0.06134884 0.08186854 -0.20553571 0.08834892 0.090005815 -0.05007391 0.09169767
-0.20092757 -0.014959582 0.18319385 0.21499477 0.12620743 -0.20858279 0.07641369 0.15603285
-0.2577137 0.07269061 -0.14050947 -0.12500995 0.10070345 0.26672873 -0.102800295 -0.08817116
-0.056348816 0.10040133 0.08838262 0.08771693 0.07672721 -0.22208959 -0.14362332 0.21621199
0.09271669 -0.15004766 -0.02007124 -0.15824194 0.009306299 -0.07717722 -0.08154388 0.0029900856
0.030092677 -0.08239142 0.21961617 0.14275965 -0.20718175 0.283855 0.056726556 -0.08030717
-0.105518386 0.09678191 0.11831456 -0.27365574 0.29238918 0.15430564 -0.052071847 0.08036963
-0.3158343 0.053338517 -0.1928093 0.10568706 0.09898432 0.21342342 0.20615312 0.059572242
-0.18314114 0.14545774 0.07311071 -0.07252992 -0.27532995 -0.10109418 -0.042670093 -0.10395757
0.1784761 -0.05007816 0.3295504 0.054175958 0.010528685 -0.11057616 -0.122813605 0.045197718
-0.23869248 0.15743805 -0.21105628 0.2663382 0.111074276 -0.20085715 -0.20578913 0.15137485
0.042221412 -0.18137124 0.07508042 -0.12337835 0.15944394 -0.16885012 0.27961823 0.24204354
-0.10652993 0.022770785 -0.19191627 -0.21817933 0.24358845 -0.22105624 0.10965965 -0.09286586
-0.1142649 0.16690664 -0.003346067 0.12502185 0.08109894 -0.11717604 -0.2001256 0.28818628
0.041540217 0.25137863 -0.29655886 0.14706483 0.27468386 0.06298007 -0.1587009 -0.14451241
-0.034636315 -0.019897757 -0.13156931 0.11035218 0.22688314 0.22612712 -0.24717505 -0.21760584
0.0667713 -0.0023623863 -0.1681469 -0.035952684 -0.007781769 -0.086384736 0.21932314 -0.31134063

conv1.root f4 [40, 16]
00000000: 7571 773e 5ebf b2be 43d3 76be 3f68 903b
00000010: 9a7a 443e 2795 9bbd ccdc 693e 666b c83d
00000020: 1b82 9abe 7a42 e63c 51d4 a53c 089f 213e
00000030: 35c1 143e 990e 093d 5fdd 933e 222a 32bd
00000040: b89b 46be 74b1 2abe bc9a 14be 9586 7fbe
00000050: 9bfb 93bd 4ea2 07bb ffd5 333e 6cc4 55be
00000060: dc3a 17bd b790 17be 94cd 0dbd fa2c a6be
00000070: 397d 373d f233 133d 4c09 523e 4728 82bc
00000080: 9854 04be 0f1e 62bd 0929 f83c bdbb b1be
00000090: 3b73 2ebe df32 d3bd d882 013e 59b9 2a3e
000000a0: 2c6e c2bd b16e 9c3d 6c6c 023e 36bf fa39
000000b0: c8ce 90be 6f09 04be 2cd3 cfbd b56b 11be
000000c0: 26d0 273d 6575 873e 15f5 1abd e0ec 8ebe
000000d0: e464 083e 5010 6f3e 9e6d 6cbe 0b78 3b3e
000000e0: 5a56 43be 8f86 39bd 541d a3bd 1e9a 413e
000000f0: 1763 703e cdfc ccbc 82c6 e13c 3467 5d3e
00000100: efa2 663e a67b 9f3e 4027 bdbe 61f3 38be
00000110: 37d1 a03d f450 1c3e 5a54 e23d d0b6 5ebe
00000120: dd50 203e 774a 91bd 18c7 1cbd e2cf 613e
00000130: 8396 e3bc 46c4 9abe 5202 723c 8a6e 91be
00000140: e0ee 0e3e 51a0 b03d f257 213e 00ac 51bd
00000150: 8e0b 1abe 04e3 243e 7d8a 0f3e 0dfd 373e
00000160: 8835 273e 2102 17be f14f 193e 25f9 423e
00000170: 5fbe 2a3d 4b14 4c3e 94ef 3cbe cc14 b9be
00000180: d100 27bd 8b16 d0bd f8d0 243d a208 163e
00000190: 250e 14be 08f0 eb3d 7d2b 7bbe d2ce 5bbd
000001a0: 1607 16be e195 a5be 29d3 8e3c 2e79 2d3e
000001b0: 0d04 46be 346c 83be ab74 233e 799f 2b3b
000001c0: 7d4d 933e 55dc 623e 2b11 7a3e d825 36bc
000001d0: d3ac febd 0f6c aebe 6cc7 f4bd 2176 ecbd
000001e0: 8187 96bd 0185 703e 5095 1a3c 85c5 57be
000001f0: 5d9b b4be 0334 92bd 7d73 ccbc 9839 b53e
00000200: 6a7b f63d 9d4b 49bd 7af3 1fbe c335 353e
00000210: af52 29be 5ca7 803e abba a8be 24bd 903b
00000220: 2411 343e d655 aa3e c59e 13be 8780 a9bd
00000230: 6c98 8abe 514c 39be 89c0 78be 02eb 24be
00000240: 5ebf 9cbe 6254 a43d db4f 1ebc c594 ab3d
00000250: a3de 1d3e a6ad e23d 11e4 a8bd b0ba 26be
00000260: 0ec4 12be 4dc7 003d 52e2 353e 5144 85bd
00000270: 8883 d73d cba7 35be 9478 16bd 43d1 08be
00000280: 4737 10be ab8d 323e 3678 693e 9037 803e
00000290: 33bd 933e 9075 67be 121e a43d 39d9 c43d
000002a0: 8ef8 453e bb05 07be 285a a73d 01b1 67be
000002b0: fc55 293e 39bd 563d c339 f63d fb8c 19be
000002c0: 4da9 013d f049 9c3d 2ef0 043e 0f5c 843e
000002d0: 861e 893e 5f8c 893c b10d 743e 73be aabc
000002e0: f9bd 303e cba1 013c f02e 4c3e 0140 4b3e
000002f0: 142e 7abd f30d b63b c272 41be a2ea 733e
00000300: 6032 993e 016e 44be 343e 2ebe b368 78be
00000310: fda7 a5be 9d22 d8bd 0c39 463e 94c8 9dbd
00000320: 35d4 753e bd35 d7bb 7082 ebbc af26 32be
00000330: 4ae4 8bbe 0055 b6bd 1b3b 2cbd 0755 42be
00000340: cd9b c1bd 88f3 73be 2d4b 64be 9a27 80be
00000350: c4d2 40bd 49e2 2fbe 16f6 c53e 8707 883e
00000360: dab7 683e c06b 55bd 7d7e 9d3e da79 80bd
00000370: 16be 64bd 53d2 733e e319 89be c1d0 9f3e
00000380: 3747 783e da8c d5be ba99 8c3d 7e55 0fbe
00000390: 21a4 42be 87bf 39be d704 31be 1fbb df3c
000003a0: 86ee a43e d0c6 193d 9e23 e3bd eb47 173e
000003b0: a1b1 1bbd 28ee 2b3e a24c 013e 4dcf fbbd
000003c0: 6b30 05be 4630 6abe fd25 063e fede 7e3d
000003d0: b0c5 5f3e d11f 843d 63f3 1cbe b2fa 773e
000003e0: 80b4 6dbe 82c6 d03d fce6 5ebe 6a99 fd3d
000003f0: 3752 91bd d600 913e 3d91 1abd e148 2d3e
0.24164374 -0.34911627 -0.24104027 0.0044069584 0.19187394 -0.07596808 0.22838134 0.097861096
-0.30177388 0.02810787 0.020242842 0.15783322 0.14526828 0.033461187 0.2887983 -0.043497212
-0.1939534 -0.16669255 -0.14512151 -0.24953683 -0.07225724 -0.0020696106 0.17562102 -0.2087571
-0.036921367 -0.14801298 -0.034619883 -0.3245619 0.044797156 0.03593821 0.20511359 -0.015888346
-0.12922895 -0.055204447 0.030293005 -0.34713545 -0.17036144 -0.10312437 0.12647569 0.16672267
-0.0949367 0.076383 0.12736672 0.0004782618 -0.28282762 -0.12894224 -0.101477 -0.14201243
0.04096999 0.26456752 -0.037831385 -0.27915096 0.13319737 0.23346066 -0.2308869 0.18307512
-0.1907591 -0.04529434 -0.07964578 0.18906447 0.234753 -0.025022889 0.027560476 0.216214
0.22523092 0.31149024 -0.36944008 -0.18061592 0.078524046 0.15265256 0.11051245 -0.21749425
0.15655847 -0.07094281 -0.038275808 0.22051957 -0.02778173 -0.3022787 0.014771061 -0.28404647
0.13958311 0.08624328 0.15756205 -0.051189423 -0.1504347 0.16102225 0.14017673 0.17967625
0.16329014 -0.14746906 0.14971901 0.19040354 0.04168546 0.19929616 -0.18450767 -0.3614868
-0.040772263 -0.1016055 0.04023835 0.1465173 -0.1445852 0.11520392 -0.24528308 -0.053664036
-0.1465114 -0.3234091 0.017434673 0.16940758 -0.19337483 -0.2566849 0.15962474 0.0026187582
0.28770056 0.22154362 0.24420612 -0.011117421 -0.12435307 -0.34066817 -0.11952099 -0.11545969
-0.07350064 0.23488237 0.009435013 -0.21071441 -0.35274783 -0.07138827 -0.024957413 0.35395503
0.12035258 -0.049144376 -0.15620223 0.1769629 -0.16535448 0.25127685 -0.32954916 0.0044170786
0.17584664 0.33268613 -0.14416035 -0.08276468 -0.27069414 -0.18095519 -0.24292196 -0.16105273
-0.30614752 0.08023907 -0.009662594 0.08377985 0.1541696 0.11068277 -0.08246625 -0.16282153
-0.14332601 0.031440068 0.17762116 -0.06507171 0.105231345 -0.17739789 -0.036736086 -0.13361077
-0.14083587 0.17436855 0.22799763 0.2504239 0.28855285 -0.2260344 0.08013548 0.096117444
0.19333097 -0.1318578 0.08171493 -0.22626115 0.16536707 0.05242655 0.12022736 -0.14995186
0.0316556 0.0763129 0.12982246 0.25851485 0.267811 0.016790567 0.23833348 -0.020842766
0.17259969 0.00791211 0.1993978 0.19848634 -0.0610791 0.005555862 -0.18891433 0.23819974
0.29921246 -0.19182588 -0.17015916 -0.2425869 -0.32354727 -0.10553477 0.19357699 -0.07704273
0.24006732 -0.0065676854 -0.02874872 -0.17397569 -0.27322608 -0.08902931 -0.042048555 -0.18977748
-0.09453545 -0.23823369 -0.22294302 -0.25030214 -0.047076 -0.17176165 0.3866431 0.26568243
0.22726384 -0.05210471 0.30760565 -0.06273241 -0.055845343 0.23810701 -0.26777562 0.31213954
0.24245916 -0.41709024 0.068652585 -0.13997456 -0.19007923 -0.18139468 -0.17287003 0.027310906
0.3221323 0.037543118 -0.11090778 0.14773528 -0.038011197 0.16790068 0.1262689 -0.12295399
-0.13006751 -0.22869977 0.13100429 0.06222438 0.21852756 0.06451381 -0.1532722 0.24216726
-0.23213387 0.10194112 -0.21767801 0.12382777 -0.07095759 0.2832095 -0.037736166 0.16922332

conv1.bias f4 [16]
00000000: b538 31bc 122d 39bd 6936 76bd 86a4 3dbc
00000010: 59f9 a0bd 02a0 d1bc 0804 d23c 39e0 23be
00000020: e6fc 7dbd 363d 70bc 80d6 6a3b aa49 d8bc
00000030: 177c b4bb e4e7 acbc 08bc 1f3c 0aa7 ccbc
-0.010816743 -0.045208998 -0.060110483 -0.01157487 -0.07860059 -0.025588993 0.025636688 -0.16003503
-0.06200876 -0.014663031 0.0035833418 -0.026402313 -0.0055079567 -0.021106668 0.00974942 -0.024981994

conv2.weight f4 [27, 16, 2]
00000000: 958b 3dbe 066c 2fbe 8fb5 bbbd fd66 1b3e
00000010: 9472 07be be3d 8f3c 49b6 04be 43d6 643d
00000020: 992d 0f3d e507 7e3c cfbc 4abe fe1b 993e
00000030: 74e0 6abd 3574 583d 7fe2 90be f8cf 22be
00000040: 211b 28be a454 39be 41a0 7ebe 5968 71be
00000050: 461b 1d3e cd3b 733e c815 2d3d c938 1ebe
00000060: fec9 b4bd a7a7 65bc 6558 1c3e cd80 2a3e
00000070: ec74 3dbe b43e 083e c21b 8a3d a0fa 9cbc
00000080: 3d20 12be a389 93be c757 443e 954d 973d
00000090: c7d1 0d3e 4b41 80be ab4c 49be 3628 333d
000000a0: f28f 6b3d adac 3ebe 7c84 0bbe d637 74be
000000b0: 29b2 09be 0ee9 da3d 751b 973e cc3d 97bd
000000c0: c21d 19bc d57b d33d aea9 b43d 0473 163e
000000d0: efbb 0b3b 47c9 1ebd affc 3e3e a229 363d
000000e0: 82d0 3d3e cc06 77bd d60a 25be c93b 31be
000000f0: 0be8 673e 49e8 bf3d baef cf3d fba2 51be
00000100: 44b4 1ebd 3497 503d aac1 913e f0eb 0c3e
00000110: f4eb 24bd ce77 36be 5d5b 78bd 6060 3fbd
00000120: 3a34 02bd ba61 873e 1f12 7f3d c32a f63d
00000130: 2dad 393e f63b 64be 57e8 323e eab9 f2bd
00000140: 790a 673e 97af cb3d 10a7 c7bd c205 4f3e
00000150: 56b5 34bd 4a42 48be d9c1 823e 21e3 bdbd
00000160: 4d96 00bd c5d5 423e 63ab b6bd b217 afbd
00000170: 76d7 063e ece7 8a3d d62b 30be cccf 04bd
00000180: 54ab b2bb 56fa 393e 72e7 79be 94c0 61be
00000190: 31a9 c4bd deea 6ebe 8350 80be ef38 c23d
000001a0: 869a 2b3d eee4 043e c1e2 44bd 0f9b 313e
000001b0: 36e9 0b3e 48ed 37be 8a02 09be dc6b 643d
000001c0: 59f1 b73d bb5d f13d 0434 003e be5b 7bbe
000001d0: be24 5dbe 13ff 1fbe 5b15 28be 834c 20be
000001e0: 5e01 443d b397 1b3e ef49 4d3d 64ca 8bbe
000001f0: 1457 39be 26fe 87bd db3d 823d ce03 80be
00000200: 127a 6f3e 6058 6dbe 7b67 773d 5397 9cbd
00000210: 11b7 543d 850e abbd bd53 6dbe b979 cdbd
00000220: 62b3 793e 757a babd 4260 b1bd 4596 703d
00000230: 51e3 813d 285a 813e 87d3 1dbd fbc3 5ebd
00000240: f3be 6cbd b48e 253e 48f9 233e 493c f2bd
00000250: a8b1 b03c 3433 23be 2b3a 8bbe 36e7 0fbe
00000260: 354d 433d b45d 5fbd 8caf 0cbc 04ff 1cbe
00000270: cc93 00bd eed1 f13d 0559 403e f8f1 693e
00000280: 161a adbd 4b83 8dbe 962c 3c3e 58f0 943e
00000290: 2bb5 63be b39d 61bd 572a 653e c029 2abe
000002a0: b630 dd3c 9059 26be 62d8 953e 72c5 85be
000002b0: bbd3 22be d7c4 263e ea3d 2fbe 343f 183d
000002c0: e9a7 0c3e 2b62 c03d 8b1a 60be f343 493e
000002d0: 30fb 0a3e 47f3 ce3d 3a4d de3d 5e14 3dbd
000002e0: e944 343d d964 893e e36c 60bd 35dd 3bbe
000002f0: ae6c 4abe a2aa 043e 0725 a23d 3a96 7bbe
00000300: cdbc 46be 771d c5bd 534e 5c3e b11a 5e3d
00000310: 81fb 673d 5969 223e ceb7 ce3d 6c3b b63d
00000320: 39e9 50bd b91a 47be 32d3 693e 0186 fbbb
00000330: 2954 153e 8a20 22be d72f 693e 6b14 fdbd
00000340: ed72 023e 9bd0 e73b 2fe8 dc3d 2f6c 93bc
00000350: ab65 b9bd b9b2 b73d 22dc 3b3e 4838 81be
00000360: b6ec 1c3e 28c7 273e 7df7 003e b649 bfbd
00000370: ec22 c93d 7fc1 3a3e e13a 0f3e 674c b0bd
00000380: 5265 553e ffab 5c3e 738a cc3d 09df 8b3d
00000390: 0243 653e 2920 313b e5e2 2a3e 1e2b 9c3d
000003a0: e9f4 50be b792 72be d79f 143e ca6e 3e3e
000003b0: f605 333d 9800 4a3d 23b5 6a3e f509 653e
000003c0: be4b 5cbb 8540 53be 0ac3 7fbe 7522 3bbe
000003d0: 6cb6 23be 31d5 c63d 5ae5 6dbd 51b6 8a37
000003e0: 1012 933e a123 d2bd ee77 ab3d c66f 87bd
000003f0: e1ad 53be 818a 803c d678 d73d 7daa 45bd
-0.18510278 -0.17131051 -0.09165489 0.15176006 -0.13227302 0.017485496 -0.12960161 0.0558684
0.034955595 0.015504812 -0.19798587 0.2990417 -0.05734296 0.0528452 -0.28297803 -0.15899646
-0.16416599 -0.18098694 -0.2486582 -0.23574962 0.15342435 0.23753281 0.0422571 -0.1545135
-0.088275895 -0.014017022 0.15268095 0.16650696 -0.18501633 0.1330517 0.06743576 -0.019162476
-0.1427011 -0.28815946 0.1917411 0.073878445 0.13849555 -0.25049815 -0.19658153 0.04373952
0.057510324 -0.18620558 -0.13624758 -0.23849425 -0.13446869 0.10688983 0.29513136 -0.07384834
-0.009345474 0.103263535 0.08821426 0.14692312 0.0021321734 -0.03876617 0.18651079 0.044473298
0.1853657 -0.060309216 -0.16117415 -0.17307962 0.22647111 0.09370477 0.10153146 -0.20472328
-0.038746133 0.05092545 0.28468066 0.13761878 -0.040264085 -0.1781914 -0.060634006 -0.04672277
-0.03178809 0.26441747 0.06227314 0.12019875 0.18132468 -0.22288498 0.17471443 -0.118518665
0.22562589 0.099456005 -0.097486615 0.2021704 -0.044118248 -0.19556537 0.2553852 -0.09271837
-0.031393338 0.19026859 -0.08919408 -0.085494414 0.1316813 0.06782517 -0.17204222 -0.032424733
-0.005452553 0.18161902 -0.24404696 -0.22046119 -0.09602583 -0.23331782 -0.25061426 0.094835155
0.041895412 0.12977955 -0.048067812 0.17344306 0.13663182 -0.1796161 -0.13379875 0.055766925
0.0898158 0.11785456 0.12519842 -0.24546716 -0.21596047 -0.15624647 -0.16414396 -0.15654187
0.047852866 0.15194587 0.050119337 -0.2730285 -0.18099624 -0.06640272 0.06359454 -0.25002903
0.2338641 -0.23178244 0.06040142 -0.0764605 0.0519324 -0.08352379 -0.23176475 -0.100329824
0.24384835 -0.09105388 -0.08660938 0.05873706 0.06342185 0.25264096 -0.038531806 -0.05438612
-0.05779929 0.16167718 0.16013062 -0.11827905 0.021569088 -0.15937501 -0.27192816 -0.14053044
0.047681052 -0.05453272 -0.0085867755 -0.15331656 -0.03139095 0.11807619 0.18783958 0.2284621
-0.08452241 -0.2763923 0.18376383 0.29089618 -0.22237079 -0.055082034 0.22379433 -0.16617489
0.027000766 -0.16245103 0.2926665 -0.261272 -0.15901081 0.16286026 -0.17113462 0.03716965
0.13735928 0.09393724 -0.21885125 0.19654827 0.13572383 0.10104995 0.108545735 -0.046162
0.04401103 0.26834753 -0.054791342 -0.18346103 -0.1976802 0.12955716 0.07917219 -0.24569026
-0.1940796 -0.096247606 0.21514253 0.054224674 0.056636337 0.158605 0.10093652 0.088980526
-0.05100367 -0.19443788 0.22834471 -0.0076758866 0.14582886 -0.15832725 0.22772156 -0.1235741
0.12739153 0.0070744283 0.10786473 -0.017995922 -0.09052595 0.089696355 0.18345693 -0.25238252
0.15324673 0.16384566 0.1259441 -0.09340231 0.09821114 0.18237875 0.13987304 -0.086083226
0.20839432 0.21549986 0.099873446 0.0682965 0.22388843 0.0027027226 0.16688116 0.076254115
-0.20405926 -0.2368878 0.14514099 0.1859695 0.043706857 0.049316972 0.2292066 0.2236708
-0.0033614482 -0.20630081 -0.24976745 -0.18274863 -0.15987557 0.09708632 -0.058080055 1.653578e-05
0.28724718 -0.10260702 0.08372484 -0.06613116 -0.20671798 0.015691044 0.105210945 -0.048258293

conv2.comp f4 [55, 27]
00000000: d24a 5c3b 02d1 c1bc ba66 eab9 f62b 1d3b
00000010: 9f3b 07bb f93a 2f3c caaa edbb 745d d83b
00000020: 93ca 5c3b 4cce 9d39 8f6f a1bc c9e4 883c
00000030: 1670 b0ba 0b81 c0ba 3fdd 5f3b 3a56 2d3c
00000040: 88fa 11b9 92f0 673d 3d1e 89bd 9956 0f3c
00000050: 6697 c73a c97d 593a 4831 f63c 8c79 2d3c
00000060: 89c3 4fbd b325 19bc 1f37 7bbd 2128 2cbc
00000070: 5b07 023d aa1d e83b 3072 dcbc 6815 7d3d
00000080: d098 173c 47ce 723d 5ecd de3a 05a1 68bb
00000090: bbf9 d73b 5666 8d3d 7fc8 7239 73cd 63bb
000000a0: eebd 9b3a 9988 243b d835 88ba 8c8d 113d
000000b0: d7ab 1b3c 2913 1f3c ceef aeba 4f76 7fbc
000000c0: b321 07bd 8618 c2bb fe4d f43b 5178 673b
000000d0: 3a1e 96bb 87c6 053a bfa9 023c 7c75 92bb
000000e0: cfc6 6cbb e375 1e3c 6a95 39bd cae0 4dbd
000000f0: 8f0b cb3b 99f4 953b d0a0 4839 cd91 88bb
00000100: 6aa9 b8bc 751a 4ebc dc13 53bb 6be2 793b
00000110: 5c6f 2e3b b9d0 84bd 50ed 2b3d c8ca d6ba
00000120: 9188 173c 323d 223c 5ae7 903b 6b8c 07bb
00000130: 53d9 30bc fc22 943b a372 83bd 9c30 9b3c
00000140: 8a70 003a 0dbb 813b 7c31 ebbb 6dd7 b1b9
00000150: e745 2f3c 2e0f 2d3c 2cd1 b0ba 2c66 ac39
00000160: 854a 90bb 3243 173c 2602 2b3c 428c 2dbc
00000170: 25c8 883b 02d2 c23b f4ef f9bb c727 243c
00000180: be7f a0bb abfb 2bbc c375 223c 64a7 cc3a
00000190: 5259 8ebb 56b6 17bc d1dc 033b 701c 223c
000001a0: f38c 1dbc e470 e93b dc15 5dbd f882 ad39
000001b0: a876 f73d b15d 193e 5697 783e 4f81 10be
000001c0: ac66 48bd a83d b2bd 3903 9fbc 6188 833d
000001d0: 4a31 b2bd c182 683e 09bd 593d 8549 073d
000001e0: c642 c6bd 2fc4 e23c bbe2 093e a95b b6bd
000001f0: d107 8b3e a85b 773e 36b5 aabd 4909 313e
00000200: 321b bcbc ed52 54be 7f56 67bd 2e4c 2abe
00000210: 9f5d 563d d9c3 e93d 3b85 383d 550d 013e
00000220: 8354 373e ea27 753e 299f 19be a07e 773e
00000230: dadd ed3d 2601 cc3d 170d 103d 3501 37bc
00000240: b950 2cbe f966 12be 0bfd 45be 6714 243e
00000250: bec4 f13d bde1 333e 9c2f 15be 8d88 27be
00000260: acbf 6dbe 4e4b 063d aa2d 0ebe 92ea 65be
00000270: a8c2 153e 59ab 1e3d 224c 083e 2f99 b3bd
00000280: a629 adbd daa9 0fbe 3d5c 2cbc 1b43 bd3a
00000290: 319b 2b3c a6cd b13a da48 cc3b 7c24 20bd
000002a0: 1f1a fb38 ff15 e73c 7e32 81bb 459d 06bc
000002b0: 6762 eb3b 2cd3 d5b9 827c d23b 712b cd3b
000002c0: 046e 77bc 9264 50bb cdda 983c 73ad 02bc
000002d0: ac1d dab9 e426 2fbd fd8b 72bd 355d 103b
000002e0: c59a 1e3c ed3b f63a aaa6 273d 2001 4bb9
000002f0: 9fd8 2e3c 3673 37bb ab0b 60ba 6c33 193c
00000300: 11ba 873b b08d 423b 8b10 0b3d e187 2b3c
00000310: c3a6 2cbd e12e 16bc 1a2e 8a3b b0db bbbb
00000320: 8510 2dbc 3a16 b7b9 97ea 73bb b5d4 b5bb
00000330: ce9d 283c 2414 0f39 7a91 6a3d 4742 19bd
00000340: 0956 d2bb 3190 b63b 006f c837 8b6c 183c
00000350: c23d 1f3c 5a8b 22bc 64c9 2d3c 1fe2 2bbc
00000360: d680 d6bb 7286 27bc b9af 8dbd ba4d 283c
00000370: ae47 f5bc 3a75 553d d603 2e3c 80a6 dcba
00000380: 74fa 253c 7222 fa3a 36a5 563b fe40 e5bc
00000390: 83a2 063c 4318 0f3b 5264 823b 1473 a338
000003a0: 70b1 d73b 1617 41ba 03f7 1bb9 b088 37bb
000003b0: fe28 8cbb 24f2 75bd ab11 1aba 4024 743d
000003c0: 42c2 66ba a802 25ba 11aa ae3b 9b57 00bd
000003d0: c29f 77bb 5bb3 1a3b 0907 af3a 693f 92bb
000003e0: 94bf d3bb b3ab 553b 3062 b4b9 a62b 86b9
000003f0: 3c55 cf3a 749c 1e3c 0665 1c3c dd48 513d
0.0033613932 -0.023659233 -0.00044708495 0.0023982502 -0.0020634902 0.0106952125 -0.0072530257 0.0066029374
0.003369008 0.00030099077 -0.019706516 0.016710656 -0.0013461139 -0.0014686895 0.0034158973 0.01057964
-0.00013921608 0.05662591 -0.066952206 0.008748674 0.0015227615 0.00082966365 0.030052796 0.010588061
-0.050723586 -0.009347367 -0.061331864 -0.010507614 0.031745296 0.0070836144 -0.026909918 0.061787993
0.009252742 0.059278753 0.001699846 -0.0035496366 0.0065910495 0.06904285 0.00023153609 -0.0034759908
0.0011882165 0.0025105833 -0.0010392023 0.03553538 0.009501419 0.009709158 -0.0013346614 -0.015592172
-0.032991122 -0.0059233336 0.0074555865 0.0035319517 -0.00458124 0.000510313 0.007975041 -0.0044695716
-0.0036129241 0.009671661 -0.045308508 -0.050263204 0.0061964463 0.0045762775 0.00019133394 -0.0041677714
-0.02254172 -0.01257955 -0.0032207882 0.003812934 0.0026616668 -0.06485123 0.041974366 -0.0016387338
0.009248869 0.009902285 0.0044221105 -0.002068306 -0.010794002 0.004520772 -0.064183496 0.018944077
0.0004899582 0.003959066 -0.00717753 -0.00033920576 0.010697818 0.010562701 -0.0013490072 0.0003288252
-0.0044034147 0.009232329 0.010437524 -0.010592522 0.0041742497 0.005945445 -0.0076274816 0.010019249
-0.0048980406 -0.010497014 0.009915772 0.0015613851 -0.004344144 -0.009259781 0.002012063 0.009894475
-0.009616124 0.0071240533 -0.053975925 0.0003309471 0.12083179 0.14977147 0.2427648 -0.14111827
-0.04892604 -0.08703166 -0.019410716 0.064224966 -0.087008074 0.22706129 0.053158794 0.033029098
-0.09680705 0.027681438 0.13465397 -0.089042015 0.271544 0.24156058 -0.083353445 0.17288698
-0.022962186 -0.20734759 -0.056478973 -0.16630623 0.052335378 0.11414308 0.045048933 0.12602742
0.17903332 0.23941007 -0.15002121 0.24169397 0.116145805 0.099611565 0.035168733 -0.011169721
-0.16827668 -0.14297093 -0.1933481 0.16023408 0.11805104 0.17566581 -0.14568943 -0.16360684
-0.23217648 0.03278666 -0.13884607 -0.22452763 0.14625037 0.03873763 0.13310292 -0.08769452
-0.084552094 -0.14029637 -0.010520038 0.0014439555 0.010474012 0.0013565316 0.0062342705 -0.039097294
0.00011973478 0.02820873 -0.0039427867 -0.008216207 0.0071833613 -0.0004078386 0.006423534 0.006261282
-0.015101913 -0.0031798226 0.01865902 -0.007975924 -0.00041602307 -0.0427617 -0.059215534 0.0022028212
0.009680455 0.001878617 0.040930428 -0.00019360008 0.010671764 -0.0027992255 -0.00085466605 0.009350639
0.004142054 0.0029686503 0.033951323 0.010469408 -0.042151224 -0.00916645 0.0042169215 -0.005732976
-0.010563021 -0.0003492104 -0.0037218684 -0.0055490383 0.01029153 0.00013645046 0.057267644 -0.037416723
-0.0064189476 0.005571388 2.3893546e-05 0.009303222 0.009719314 -0.009920919 0.010607097 -0.010490923
-0.00654612 -0.010224925 -0.06918282 0.010272438 -0.029941406 0.05211375 0.010621032 -0.0016834289
0.010130513 0.0019083752 0.0032752282 -0.027985092 0.008217457 0.002183453 0.0039792443 7.793881e-05
0.0065824315 -0.0007365806 -0.00014873971 -0.0028005056 -0.0042773476 -0.060045376 -0.00058772665 0.059604883
-0.00088027504 -0.00062946463 0.005330332 -0.031333547 -0.0037784432 0.002360544 0.0013353537 -0.0044631255
-0.006462047 0.0032603561 -0.0003440543 -0.00025590992 0.0015818249 0.009680856 0.00954557 0.05109488

conv2.root f4 [16, 2]
00000000: 37f9 a53d ced8 bb3e f535 80bd 38b7 dcbe
00000010: 4eb7 143f 9adc cbbe 208e 023f f0ce 883e
00000020: d59d 923e 335c 6cbc 2f70 90be 84df 0a3e
00000030: 1a1a e8be 5949 88be 75cd 793e 6718 78be
00000040: 2f87 173f d3a5 a43b 5ba1 61be f1bb 3cbe
00000050: 61f6 bdbe d84f 663e 08cd 8b3e 9593 a63e
00000060: 5446 a83e 7c5d e53e b732 803e 3eac b4be
00000070: 9776 9fbe 40b3 48be 4a02 133f 6115 07bf
0.081041746 0.36688846 -0.062602915 -0.43108535 0.580922 -0.39816743 0.50998116 0.2672038
0.2863604 -0.014426279 -0.2821059 0.13561827 -0.45332414 -0.2661846 0.24394782 -0.24228059
0.5919065 0.0050246506 -0.22034208 -0.18431069 -0.37102035 0.22491395 0.27304864 0.3253447
0.32866156 0.44797885 0.25038692 -0.3528766 -0.31145164 -0.19599628 0.5742537 -0.52766997

conv2.bias f4 [2]
00000000: 0121 73bd 0121 733d
-0.059357647 0.059357647
