models/A_20250319.pth (torch, 14756 bytes, 8 tensors)

conv1.weight f4 [3, 9, 64]
000000 4c 81 cb bb 21 7f 1e 3c ca 63 29 3c 68 2b b1 bb
       -0.0062104817 0.009673865 0.010338733 -0.0054067858
000010 9a e3 61 3b 6f 5b 2c bc b6 d2 2f bc cc 3e 2e bc
       0.0034467936 -0.010519846 -0.01073139 -0.010635089
000020 58 c2 67 3b 22 44 86 3b a6 fc 89 3a 11 8c 1e bc
       0.003536364 0.0040974775 0.0010527566 -0.009676949
000030 85 39 ff 3a a2 c6 9b 3b cc df ed bb 96 d2 84 bb
       0.0019472098 0.0047539035 -0.0072593447 -0.004053424
000040 5a 1d fa b9 10 ef 84 39 b0 01 94 38 4b b6 20 3c
       -0.00047705584 0.00025355117 7.057504e-05 0.009809087
000050 e0 d9 15 bc 80 2b b1 37 10 d8 2f 3b 6f 27 10 ba
       -0.009146184 2.11203e-05 0.0026831664 -0.000549904
000060 d6 27 ed b9 ee fb 86 bb 64 e7 61 3a 92 ac 8f 3a
       -0.00045233843 -0.004119388 0.0008617549 0.0010961464
000070 b2 de cb 3a 0d 3b 29 3c 73 71 a6 ba 34 25 c4 3a
       0.0015554039 0.01032902 -0.0012698605 0.0014964701
000080 2b 40 16 bc 15 e2 9a 3a 57 49 01 3c 05 34 1c bc
       -0.009170572 0.0011816645 0.007891021 -0.009533887
000090 59 14 4f 3b 0c 9d 22 bc b6 5b 97 bb ab 3c 21 3c
       0.0031597822 -0.009925138 -0.004619087 0.0098411245
0000a0 df fa 40 ba a2 e3 dd ba ce ea d1 ba ee d4 7d bb
       -0.00073616015 -0.0016928802 -0.0016015412 -0.0038731652
0000b0 88 e6 2f 3c b2 4e b4 bb 90 d8 2b bb da 5e 20 bb
       0.010736115 -0.0055025453 -0.002622161 -0.0024470598
0000c0 37 6d 24 bb 95 8c 42 3b c4 b9 1c bb d0 46 d4 b9
       -0.0025089511 0.0029685844 -0.0023914436 -0.0004048855
0000d0 2a 8b 13 3a 2f 57 25 bc 0e 75 2d bc 69 2c a7 bb
       0.0005628342 -0.010091587 -0.01058699 -0.0051017297
0000e0 88 f8 0c bb 67 c0 96 3b 48 07 c4 b8 08 9e 0a bc
       -0.002151044 0.004600573 -9.3473645e-05 -0.008460529
0000f0 2e cd 1d bc 70 e0 26 3c f9 a3 25 3c 00 37 eb 3b
       -0.009631438 0.010185346 0.010109895 0.0071781874
000100 28 49 af 3b db 49 b5 bb dc 9a be 3a be 57 a7 3b
       0.005349297 -0.005532486 0.0014542001 0.005106895
000110 2c 74 42 3a fc d1 6f 3b 3a 7d 0e 3b c5 f8 2d 3c
       0.00074178237 0.0036593666 0.0021742121 0.010618393
000120 0d 86 d8 3b 75 d3 2c bc 1a f6 19 bb 91 67 4f 3b
       0.006607777 -0.010548462 -0.0023492635 0.0031647424
000130 24 0b a8 3b ee 35 9c ba ac d2 26 3c c8 58 7f b9
       0.005128281 -0.0011917928 0.010182064 -0.00024351769
000140 9e 5c 56 bb 31 60 1c 3b 56 fa 28 bc 6c e3 9a 39
       -0.0032709013 0.0023861045 -0.010313591 0.0002954261
000150 6d 13 ab ba b6 ca c0 3a da 49 d9 ba 04 69 c2 bb
       -0.0013052054 0.001470885 -0.0016577796 -0.005932929
000160 d0 41 f9 39 3e cc 2f bc f2 24 08 3c 3e 87 91 bb
       0.00047542015 -0.0107298475 0.00830959 -0.004441171
000170 c8 35 53 3b c7 9c 2f 3c a8 d4 70 39 50 e7 e1 b9
       0.00322281 0.010718531 0.00022967404 -0.00043087685
000180 5e 4f 85 bb 5e a2 b6 bb 96 60 05 3c 58 69 de b9
       -0.004068299 -0.005573555 0.008140704 -0.00042421627
000190 b0 24 f6 bb ae cc bd 3b fa 1f ae ba 0e 25 b5 3b
       -0.0075116977 0.005792222 -0.0013284676 0.005528099
0001a0 82 7c 2f bc 24 b0 09 3b 2a e6 77 bb 06 2d ab bb
       -0.010710837 0.002100953 -0.0037826397 -0.005223873
0001b0 01 bf 95 bb f6 a3 e2 bb c1 c8 0f bc 95 56 1e bc
       -0.0045698886 -0.0069165183 -0.008775891 -0.009664197
0001c0 f0 ce bc bb 23 44 97 3b 70 e4 8e 3b 86 09 b9 3b
       -0.0057619736 0.004616277 0.004360728 0.0056468872
0001d0 38 65 2a 3c f7 0d 06 3b 76 71 e3 ba 74 e0 0d bc
       0.010400109 0.00204551 -0.001735254 -0.008659471
0001e0 13 64 2f 3c 63 01 08 ba ef 41 21 3c 3b d4 2f 3c
       0.010705012 -0.0005188195 0.00984238 0.010731752
0001f0 d8 09 3d 3b 27 ed de 3b a4 cf 6a ba 3f 0c 94 bb
       0.0028844979 0.006803173 -0.00089573325 -0.0045180614
000200 ba 2e 02 bc f9 7a 37 bb ec bc 46 3b 3c fe 36 3b
       -0.007945711 -0.0027996881 0.0030325009 0.0027922532
000210 f5 b3 2e 3c 40 d1 43 39 1a 9e 15 3c a5 3e 11 3a
       0.010663022 0.00018674601 0.009131933 0.0005540646
000220 cc 49 fd 3b a0 00 07 3a f1 1a 05 bb 49 a5 0b 3c
       0.0077297445 0.00051499344 -0.0020310248 0.008523294
000230 50 e0 2a bc a7 ad d7 3b c9 d5 78 bb 36 c9 f0 3b
       -0.010429457 0.0065819803 -0.0037969223 0.007348205
000240 11 b0 61 ba 24 5d 87 ba 22 bb 12 bb 7e ee 56 3b
       -0.0008609305 -0.0010327441 -0.0022389372 0.003279596
000250 62 dd b0 3b 6c 0f 12 bb c3 0e 8d 3b 0a c5 99 3a
       0.0053974846 -0.0022287024 0.0043047382 0.0011731696
000260 8c 19 1f 3c e2 b7 99 bb b1 64 13 3b 6c 08 27 b9
       0.009710681 -0.00469111 0.0022490437 -0.00015929498
000270 28 62 a6 bb 59 f3 11 3b bf 14 98 3b 70 63 28 3c
       -0.005077619 0.002227029 0.004641145 0.010277614
000280 8e 62 d3 bb 00 ca c0 3b 21 3c 5a bb 38 1e 8c 3b
       -0.0064509576 0.0058834553 -0.00333 0.0042760633
000290 1e 02 d7 bb 02 37 9c 3a 58 dd ba b9 ce 8d 2a bc
       -0.0065615317 0.0011918249 -0.00035641599 -0.010409785
0002a0 52 c0 40 3a 2d 1b f2 3b ca 7d dc 3b 2f e4 90 bb
       0.0007352877 0.0073884935 0.0067288624 -0.004421733
0002b0 92 9b cb 3a 98 71 1f 39 b2 0c 07 3c e7 59 b3 bb
       0.0015534034 0.00015205739 0.008242773 -0.0054733637
0002c0 12 54 23 3c f6 41 1c bc ec 8c 2d bc 25 d3 99 3b
       0.009968774 -0.009537211 -0.01059268 0.00469436
0002d0 43 b1 86 3b 16 e9 b3 3b 86 2d 57 3b 07 6f 1e 3c
       0.0041104867 0.0054904325 0.003283353 0.009670026
0002e0 dc be 3e 3b 22 e4 f8 bb 5a 01 2d 3c d8 f9 ae bb
       0.002910546 -0.007595555 0.010559404 -0.0053398423
0002f0 82 e0 be 3b 66 fb b4 3b 1c 1f c0 3b 52 f4 20 3c
       0.0058251033 0.005523133 0.0058630835 0.0098238755
000300 3e 78 63 ba 50 28 87 bb ca 47 1f bb 9f c3 63 ba
       -0.000867728 -0.0041246787 -0.0024304264 -0.00086885126
000310 3c 5a 4d bb 8b 21 63 3a fb ab 2d 3c ff 78 2f 3c
       -0.0031334301 0.0008664361 0.010600085 0.01071
000320 1a 0d b3 bb 72 1a 2e 3c 28 ce 1f 39 1e 91 ad ba
       -0.0054642083 0.010626422 0.00015240221 -0.0013242101
000330 a5 90 23 bc c2 37 96 3b 73 ea 2f bc f3 59 0f bb
       -0.009983216 0.0045842836 -0.010737049 -0.0021873682
000340 e4 f6 11 3b 7e 83 c7 ba 6e 0b 3a ba 58 75 d0 bb
       0.0022272402 -0.0015221683 -0.000709704 -0.0063616447
000350 ec c0 28 bc f3 16 01 3b 86 d1 e3 bb 1c 3a 2d bc
       -0.010299902 0.0019697517 -0.0069524674 -0.010572936
000360 c6 5f fc 3a eb d3 23 3c 22 a6 a0 3a a2 02 87 bb
       0.0019254617 0.009999256 0.0012256543 -0.004120187
000370 76 ec 14 bb 8a 96 aa 3b 0f d4 5a 3b 4b c8 35 ba
       -0.002272395 0.005205934 0.0033390557 -0.0006934448
000380 78 32 48 3b 2c f3 29 bc b2 83 8a b9 5a 30 30 bc
       0.003054766 -0.010372918 -0.00026419532 -0.010753715
000390 3d b3 22 3c 6b 58 58 3b d0 7f ff bb 75 fb 11 3c
       0.009930429 0.0033011686 -0.007797219 0.00891005
0003a0 7d 92 fd 3a a4 2f 28 3c da 93 94 3b 07 cc ed 3b
       0.0019346025 0.010265265 0.004534227 0.007256988
0003b0 4b a7 f8 3b db 5c 1f 3c ba 10 b9 3b 12 32 51 3b
       0.0075883023 0.009726728 0.005647746 0.0031920713
0003c0 80 00 be bb cf c7 9f ba 02 6e 2d bc 6f b5 4b 3b
       -0.0057983994 -0.0012190285 -0.01058531 0.0031083485
0003d0 8c 1a 54 bb e2 65 a3 3b 98 bd 2b ba ef 36 8b 3a
       -0.0032364456 0.0049865106 -0.0006551384 0.001062123
0003e0 24 ff 24 bc 00 29 d4 b6 47 e0 29 3c d7 64 0c bb
       -0.010070596 -6.3228654e-06 0.010368413 -0.002142241
0003f0 9c 50 13 bb 40 3d 9e 37 8d e2 9a 3b 3c 56 02 ba
       -0.0022478467 1.886359e-05 0.004726714 -0.00049719564

conv1.comp f4 [3, 3]
000000 54 cd 32 bf 0a 3f e4 3e 70 c3 b6 3b 26 5e b8 3e
       -0.69844556 0.44579345 0.005577497 0.3600933
000010 b9 51 d1 be 82 8b 08 3f 9d 4f 9e 3e 2f f5 da 3c
       -0.40882662 0.5333787 0.30920115 0.02672824
000020 2d e7 0a be
       -0.13564749

conv1.root f4 [9, 64]
000000 c4 60 0c be f6 3e 1b bc 4b 87 a0 be e7 12 f6 3d
       -0.13708788 -0.00947546 -0.3135322 0.12015324
000010 20 16 13 3d 96 bf 4b 3d 86 e2 60 bd b8 dc 24 bd
       0.035909772 0.049743257 -0.05490353 -0.040249556
000020 08 3a 0a 3d 5d fe 81 bc 61 9d 8d bd 73 9a 5c be
       0.03374675 -0.01586836 -0.06914783 -0.21543293
000030 9e cf 82 3d 68 77 95 bd 7c 8d 0b 3d c2 b4 97 3d
       0.06387256 -0.072981656 0.034070477 0.07407524
000040 24 09 55 3e 21 0b bd 3d 69 e1 39 3e 0d 60 12 3e
       0.20804268 0.09230638 0.18152393 0.14294453
000050 c1 f8 11 be b4 80 f7 3d f1 89 36 3d 0d 37 5f 3e
       -0.14255048 0.12085095 0.044565145 0.21798344
000060 35 9f 0d 3e 54 6d 10 be a1 d7 85 bc 00 ca 82 be
       0.13830264 -0.14104205 -0.016338171 -0.2554474
000070 7f 27 1a be bc 7f fc bd 32 c9 e1 bd 0b 7a 42 be
       -0.15054129 -0.12329051 -0.11024703 -0.18991868
000080 cb 1c 39 3e 38 25 26 bb ef 3f 14 3e 90 15 6e be
       0.1807739 -0.0025351774 0.14477514 -0.23250413
000090 f4 7f ef 3c 48 7a 24 be 51 ee 9e 3d e8 df b3 3a
       0.029235817 -0.16062272 0.07760299 0.0013723345
0000a0 aa b6 e5 3c 20 64 fa bc 84 6f 5c 3d 49 fa ce 3c
       0.028041203 -0.030565321 0.053817287 0.02526583
0000b0 f8 a9 0e 3e a1 86 9e bc 8f 9e 81 3b c8 cc 06 be
       0.13932025 -0.019351305 0.0039556692 -0.13164055
0000c0 5b a9 d4 bd 79 6f bc bb 91 0c e2 bd 95 77 60 bd
       -0.103838645 -0.0057505933 -0.11037553 -0.054801542
0000d0 60 77 4d bc 68 86 3a bb 70 5e 94 be 32 d7 31 3e
       -0.012540668 -0.002846146 -0.289783 0.17367247
0000e0 12 d8 1e 3c fa f4 32 3d cc 17 83 be f2 59 85 3d
       0.00969507 0.04369066 -0.25604093 0.06511296
0000f0 1e 2d 39 3e b5 ff 5e 3d b7 26 af bc 07 94 9b be
       0.18083617 0.05444308 -0.021380765 -0.30386373
000100 47 21 a3 be bc 09 91 bd ce 9b 9c be 08 42 09 be
       -0.31861326 -0.07081935 -0.3058762 -0.13404095
000110 84 3d b8 3b 5a b0 2d bd 83 e2 2c bd f2 fd 28 bb
       0.0056225676 -0.04240451 -0.042208206 -0.0025786129
000120 6b c1 b0 be 88 62 d7 3d 8f 86 4e be 39 04 f8 3d
       -0.34522566 0.1051684 -0.20168518 0.121101804
000130 b9 de 46 3d 31 36 70 3e 95 b2 4f 3e 27 c8 4c 3e
       0.04855225 0.23458172 0.20282967 0.19998227
000140 b9 00 a0 3d 41 78 1a 3d 13 85 9b bb 88 23 02 be
       0.07812638 0.03771234 -0.0047460883 -0.12708867
000150 df b8 8b be 60 88 36 3d 85 1b 6e 3e 00 76 3f bd
       -0.27289483 0.04456365 0.23252685 -0.046743393
000160 a8 e1 4b 3e 19 0c 35 3e b0 c5 ae bc 20 25 8d be
       0.199103 0.17680396 -0.0213345 -0.27567387
000170 62 e7 5b 3e cc d5 59 be 7a 0c 10 3e 9b f4 f3 bd
       0.21474984 -0.21272963 0.1406726 -0.11911889
000180 a6 56 cd bd 83 db 47 3d d4 d0 e2 3d 03 95 89 3d
       -0.100262925 0.048793327 0.11074987 0.06717875
000190 d5 d4 5d be 35 5e 92 be 42 ab 00 be ea da 9d bc
       -0.2166322 -0.285875 -0.1256533 -0.019269425
0001a0 30 1c 8b 3e 76 f9 91 bd 9b 3f 8d 3c b2 87 18 3e
       0.27169943 -0.07127659 0.017242244 0.14895514
0001b0 34 a2 b1 bd e9 ec 6f 3c cc b5 e0 bc f4 a5 30 3d
       -0.08673516 0.014643886 -0.027430438 0.043127015
0001c0 5a 78 76 3d 60 0d 97 bc f6 14 35 be 0e 27 f1 bc
       0.06017337 -0.018438995 -0.17683777 -0.029437568
0001d0 03 d0 44 3e 49 c2 3c bb 2f 17 74 3e 93 d0 89 3c
       0.19219975 -0.0028802326 0.23836969 0.016823089
0001e0 8b 04 1f bd c0 7c c8 bb 45 da 40 be ae 1f 94 3b
       -0.038822692 -0.006118387 -0.18833263 0.004520378
0001f0 2b fb ab bd 61 8a d5 3c 61 8d e0 3c d4 47 9d be
       -0.08397516 0.02606696 0.027411165 -0.30718863
000200 ad df 3b be bb 22 02 bd 81 95 27 3e ca cd 9f 3d
       -0.18347044 -0.031771403 0.16365625 0.07802923
000210 02 a9 be 3c ff a8 f8 bd 7b 3f eb bc 24 3f cd 3b
       0.023273949 -0.121416084 -0.028716793 0.0062636305
000220 16 b1 fc 3d d1 ac 1e 3e 45 a9 12 3e c1 49 de 3c
       0.12338464 0.15495612 0.14322384 0.027134778
000230 a9 b6 d3 3c 65 22 a6 be 25 32 06 3d 88 fb 9b 3d
       0.025843935 -0.32448116 0.032762665 0.07616335
000240 cc 81 0c be 96 05 77 3d 73 ea 7c bd 46 c0 83 3e
       -0.13721389 0.06030806 -0.061747026 0.2573263
000250 8f d2 77 3e f0 5b 26 3d 16 30 9e be 06 cd 66 3d
       0.24201415 0.040615022 -0.30896062 0.05634787
000260 44 2f a2 be 49 8d 20 3e 0a e2 08 bc cc 62 97 3d
       -0.31676686 0.15678896 -0.008354673 0.07391891
000270 dd 38 96 be 91 8b c8 3d 79 06 a0 3d 1a e5 95 3e
       -0.29340258 0.09792245 0.078137346 0.29276353
000280 dc d4 19 be e8 61 0c be 0f f8 1a 3e 79 e5 b9 3d
       -0.15022606 -0.13709223 0.1513369 0.090769716
000290 da 90 84 3d e2 18 82 3c 77 b5 82 be 13 2c c1 bc
       0.06472941 0.015881006 -0.25529072 -0.023580587
0002a0 8e eb 3b 3e e4 6c 05 bd 57 6e a0 be 8d ac 82 3d
       0.18351576 -0.03257455 -0.31334183 0.06380568
0002b0 01 d3 f5 bd fb 8b bb 3c 6b 61 5e 3c 5b b9 c1 3d
       -0.120031364 0.022893896 0.013573031 0.09459182
0002c0 31 56 3d be 39 b5 1f bd 15 54 19 3c 05 3a bf bc
       -0.1848991 -0.038991187 0.009358426 -0.023343096
0002d0 75 da e5 bd 68 6d b2 bc 57 0c 39 3e 4b 68 fa bd
       -0.11223308 -0.021780685 0.18071114 -0.122269236
0002e0 4c 04 75 3c 66 0e 31 3d 96 2f 97 3e 1b af 8e be
       0.014954638 0.043226622 0.29528493 -0.2786797
0002f0 a0 ae e3 bd f3 0a 09 bc 23 19 93 bd 83 cf db 3d
       -0.111172915 -0.008364427 -0.07182529 0.10732939
000300 9c e2 76 be b8 35 91 be 3b 55 5c be 37 df 00 3e
       -0.24109882 -0.28361297 -0.21516888 0.1258515
000310 0e 72 06 3c 1a 76 7d be 26 b0 b1 3d 62 3c 87 3c
       0.008205904 -0.24752083 0.08676176 0.016508285
000320 f6 ab 91 be bd bc 8a bb 24 33 87 bd be 23 69 bd
       -0.28451508 -0.004233925 -0.06601551 -0.056918852
000330 7c 94 46 be bd 01 8b 3c 35 f7 9e 3d c7 5d 87 3e
       -0.1939258 0.016968602 0.07761995 0.26438734
000340 80 a5 33 bd 9a f2 d0 bc a2 ef 83 3e 3a bd a8 be
       -0.043859005 -0.025506306 0.25768763 -0.32956868
000350 35 d5 c5 bd 70 90 bc 3c 3b 9f 2c 3e cc 9f 38 bd
       -0.09659807 0.023018092 0.16857617 -0.04507427
000360 0d ea b3 be 78 5f b0 39 86 47 58 bc b5 e1 0a bd
       -0.35139504 0.00033640466 -0.013200646 -0.033906657
000370 d7 8a 74 be 02 14 62 3d b9 87 8a 3d cb 4d 58 3e
       -0.23881088 0.055194862 0.06764168 0.21123426
000380 ce c6 9a bd c5 b8 b7 3d 2a 1a 63 3e 85 cb 9e bc
       -0.0755745 0.08970789 0.2217795 -0.019384155
000390 96 fc 80 3d af ca 55 3e 23 20 12 3e a8 a4 16 bd
       0.06298177 0.20878099 0.14270072 -0.036778122
0003a0 42 79 83 3d 6f fb 14 3b bf 8b 3f be 4a b4 c4 bd
       0.064196125 0.0022732874 -0.18705653 -0.096047
0003b0 a0 bd 1e be 0c f6 0a 3c 06 a7 b2 3c 12 f1 36 be
       -0.15502024 0.008481514 0.021808159 -0.17865399
0003c0 40 88 18 be 2a 32 0c bc 55 45 7b be 22 d5 3a bd
       -0.14895725 -0.008556882 -0.24538167 -0.045613416
0003d0 1c 85 a6 be ea 34 33 bc 3a c4 52 3e 03 40 86 be
       -0.3252343 -0.010937909 0.20582667 -0.26220712
0003e0 5f 51 8b bc 1f 7a e2 3c e2 9c 4b 3e 00 2c 39 be
       -0.017006574 0.027646123 0.19884065 -0.18083191
0003f0 4f 33 5e bc 95 33 02 3e d6 53 6d be 7b 18 86 be
       -0.013562038 0.1271499 -0.23176512 -0.26190552

conv1.bias f4 [64]
000000 19 7c 52 bd 16 a1 f9 bc d6 00 51 bd 6e c5 c9 bd
       -0.05138788 -0.03047232 -0.051026188 -0.0985211
000010 7e 0e 56 3c 05 5e 0a be e5 7d 35 bd 16 ac 2f bc
       0.013064979 -0.13512428 -0.044309516 -0.010722181
000020 5b cb fe bd b3 6c b7 bd 01 c1 6b bd 8a 83 a6 bc
       -0.12441131 -0.089562796 -0.05755711 -0.020326395
000030 27 18 07 bc ab 18 02 bd a2 c3 29 3d 74 04 5c bd
       -0.008245504 -0.031761806 0.041446336 -0.053715184
000040 da d0 95 bd d9 79 74 3d 82 4f b1 bd bd 55 46 bc
       -0.07315226 0.059686515 -0.08657743 -0.012105403
000050 01 a6 96 bc 5a b9 34 bd 42 e2 d6 bc ec 38 8a bd
       -0.018389704 -0.044122078 -0.026230935 -0.06749138
000060 ce af e1 bd 2d f0 8e 3d 00 00 00 00 af 4d 9a bd
       -0.1101986 0.06979404 0.0 -0.07534348
000070 36 eb df bc d0 ad 00 be c2 76 8a bc 34 b1 45 3d
       -0.027333837 -0.12566304 -0.016902331 0.048264697
000080 26 b5 b6 bc e0 50 87 3a 9e 87 83 bd b2 13 22 bd
       -0.022303175 0.0010323785 -0.06422351 -0.039569564
000090 ea d2 53 bd d2 7c be bc cc cc 0c 3d 56 13 60 bc
       -0.051714815 -0.023252878 0.034374997 -0.013676485
0000a0 fa 62 01 bd a8 6c b9 bc 15 5e 35 bd a7 cb 8b bd
       -0.031588532 -0.02263482 -0.044279177 -0.06825953
0000b0 a4 e5 99 bb f0 e6 86 3b 8d 11 ba 3b 42 0d 79 bd
       -0.0046965647 0.0041168854 0.0056783617 -0.06080366
0000c0 a2 fe 1d bd 7c 57 f3 bb c4 b4 88 bd c5 57 2c bd
       -0.038572915 -0.0074262004 -0.06675103 -0.04207589
0000d0 1d e6 87 bd 00 00 00 00 1d 2d 04 3c d7 3d a9 bd
       -0.066356875 0.0 0.0080673965 -0.08263748
0000e0 fb ad 2f bc 04 a0 a6 3c 67 59 aa 3c 8e 88 28 bd
       -0.0107226325 0.020339973 0.020794583 -0.041145854
0000f0 eb b7 c6 3c 72 2a 34 bd 5a 0e 83 3b 3b 3e 8e bd
       0.02425762 -0.04398579 0.0039995136 -0.06945463

conv2.weight f4 [3, 64, 2]
000000 64 74 b4 3c 15 b5 b7 3c d4 d6 b5 ba a7 03 df bc
       0.022028156 0.022425214 -0.0013873228 -0.027223421
000010 b2 92 bb 3c b4 8a e3 3c 6a 97 0b 3c 84 49 06 ba
       0.022897098 0.0277761 0.008519987 -0.0005122649
000020 98 cb b3 3b 82 c7 ed 3b 18 bf 15 bc a6 cd e2 bc
       0.0054869168 0.007256449 -0.009139799 -0.027685951
000030 b0 2a ca 3c 28 bf 12 3b 54 01 bd bb 0f ca c6 bc
       0.024678558 0.002239177 -0.0057679806 -0.02426627
000040 b3 94 e3 bc 0a 11 9d bc 74 96 f0 3a 0c 1d c6 bc
       -0.027780866 -0.019173164 0.0018355385 -0.024183773
000050 8c c5 9a bc 64 3f 67 3c 13 87 de 3c f6 a1 69 3c
       -0.018893026 0.014114235 0.027164018 0.014259806
000060 37 5d 2a bb 00 3b 73 39 9a 85 b1 3c ea cd 86 bb
       -0.0025995502 0.00023196265 0.021670152 -0.0041139023
000070 ae ba dc bc ee 47 e1 bc a3 16 2e bc fa 8a a4 3c
       -0.026944485 -0.027500119 -0.010625514 0.0200858
000080 43 38 30 bc 1e 9b d6 bb 19 62 dc bc 32 ad c9 ba
       -0.010755601 -0.006549253 -0.026902245 -0.0015386699
000090 20 b4 1c b8 48 cd 38 ba 26 f8 28 bc 24 83 05 bb
       -3.7361053e-05 -0.0007049632 -0.010313069 -0.0020372355
0000a0 60 24 1c bc 24 4d 92 bb 11 a2 1b bc c3 2c 30 3c
       -0.009530157 -0.0044647623 -0.009499089 0.0107528595
0000b0 8d 14 63 3c 98 2a 2d bc 79 69 de 3c 00 09 c2 3c
       0.01385988 -0.010569237 0.027149903 0.023685932
0000c0 f7 c8 ca 3c 97 65 41 bb fe 89 c1 bc e0 37 cb bc
       0.02475403 -0.0029510015 -0.02362537 -0.024806917
0000d0 f0 66 84 ba a3 8b a1 bc 7b 3d 10 3c 88 be df 3c
       -0.0010101479 -0.019719904 0.008803721 0.027312532
0000e0 ff f4 57 3b df 8c 94 bc e3 70 c6 bc 86 00 99 3a
       0.0032952426 -0.018133579 -0.02422375 0.001167313
0000f0 68 e3 34 ba 4d 30 30 3c 0d 40 27 3c 61 2e 81 bc
       -0.0006900341 0.010753703 0.010208142 -0.015769185
000100 00 1f 90 ba 70 ba 2b bb c4 29 51 ba 34 68 0a bb
       -0.0010995567 -0.0026203655 -0.0007978941 -0.0021119239
000110 60 cf 95 b8 75 e1 ef ba cd 7b bd 3c 8c 0a de bc
       -7.1435e-05 -0.0018301444 0.023130322 -0.027104639
000120 c3 b0 04 bc c5 b4 cf bc ae ec b4 bb 9a ce 83 3b
       -0.008098784 -0.025354752 -0.0055213785 0.0040224316
000130 1d e5 3e bb ce 98 e2 bc 2c 21 2a bc b3 0d 56 3b
       -0.0029128261 -0.027660754 -0.010383885 0.0032661974
000140 5d a1 87 bb 08 e7 bf 3c b8 6b 97 bb e0 4d 98 3c
       -0.004139109 0.023425594 -0.0046209954 0.018591821
000150 20 89 e0 39 43 ec a1 bc f9 81 f9 3b 79 35 01 3b
       0.00042826775 -0.019765979 0.007614371 0.001971571
000160 90 32 30 3c e8 0a e4 bc 89 b7 96 3c 86 20 06 bc
       0.010754243 -0.027837232 0.018398063 -0.008186465
000170 6c 06 86 bc d2 d3 93 3c ca 71 ec 39 09 95 e0 bc
       -0.016360484 0.01804534 0.00045098207 -0.027414816
000180 2c 8d e9 ba 0e d4 df 3c 32 c4 e2 bc 1e a9 d3 bc
       -0.0017818562 0.027322795 -0.027681444 -0.025837477
000190 08 d4 ae bc 75 01 cf 3c 98 b2 96 3a e8 03 2a 3c
       -0.021341339 0.02526925 0.0011497317 0.010376908
0001a0 e5 f0 5f bb b6 3d a0 bc 7e e9 84 3b 8e 46 98 bb
       -0.0034170684 -0.019560676 0.0040561548 -0.0046470826
0001b0 da b7 22 3b 5c 97 05 bc ed 49 f9 ba a0 83 bc bc
       0.0024828822 -0.008153763 -0.0019019224 -0.023011982
0001c0 f5 f8 09 3c 02 78 b9 3c 97 0f e3 3b 08 12 d2 3c
       0.008421172 0.022640232 0.0069293487 0.025643364
0001d0 6f da 81 bb 6e 7f d3 3c 0f 81 58 3b c9 75 a3 bb
       -0.003962807 0.0258176 0.003303591 -0.0049884063
0001e0 c1 2b 9b 3a 95 2f a1 bb b6 33 db 3b e0 14 e2 bc
       0.0011838601 -0.0049190023 0.006689514 -0.027597845
0001f0 51 96 cc bc 4b 3e e2 bc 1f 24 38 bc 90 d2 e7 b9
       -0.02497402 -0.027617594 -0.011239081 -0.00044216635
000200 8c 00 30 bc 72 8a 0d bc 3c 6e b8 bc a8 5a 51 3a
       -0.010742318 -0.008638965 -0.022513501 0.0007986226
000210 1e d0 fc bb e4 f2 e0 bc 9c ec 73 bb 96 9e 9c 3b
       -0.007715239 -0.02745957 -0.0037219888 0.004779647
000220 43 7e d9 3c 40 00 aa bc d4 f0 ee bb 22 ed e3 3c
       0.026549464 -0.020752072 -0.0072918925 0.027823035
000230 c4 0c 8c 3c ec 4e 23 bc 92 4d 3b 3b d6 d3 a5 bb
       0.01709593 -0.009967547 0.002858017 -0.005060653
000240 f6 f5 c5 3c db 94 e2 3c 6d 1d f5 3b 1c 88 b2 ba
       0.024165135 0.02765887 0.0074803145 -0.0013620886
000250 1c 26 e3 bc a8 e2 a3 bc b6 3c 73 3b 0a b5 8b 3c
       -0.027728133 -0.020005539 0.0037115044 0.0170541
000260 57 c3 c5 3c ca 1f 9b bb 60 1c c1 3c 17 bb 25 bc
       0.024140997 -0.004734014 0.0235731 -0.0101154065
000270 e3 e3 94 3b 0a 3a c4 3b 7b f0 e3 3c 5a c5 34 3c
       0.004543768 0.005988364 0.027824631 0.01103338
000280 d4 16 c3 bb dd 5e a5 3b 2a 5c 83 bc ec c3 27 bc
       -0.005953649 0.005046709 -0.016035158 -0.0102395825
000290 bf c4 0e bb 78 81 d0 3a 51 14 75 bc dd b5 e3 bc
       -0.002178475 0.0015907725 -0.014958457 -0.02779668
0002a0 15 0f 90 bc 40 65 e2 bc 16 5d d8 bc cd 81 e0 bc
       -0.017585317 -0.02763617 -0.026411574 -0.027405644
0002b0 72 37 9e bc 84 66 1e 3a 1c 86 e3 3c 8b 43 02 bc
       -0.019313548 0.00060424977 0.02777391 -0.007950674
0002c0 ae ae 8a ba f6 39 a1 3b f6 44 93 3c cd 9d a6 bc
       -0.0010580623 0.0049202396 0.01797722 -0.020338917
0002d0 d5 17 e3 bc dc 77 d7 bc c7 d7 bd 3c 8d 7d d3 bc
       -0.027721325 -0.02630227 0.02317418 -0.025816703
0002e0 70 3f 72 39 e0 ef 0e bb 46 1a 7b 3a b6 da da 3c
       0.00023102551 -0.0021810457 0.0009578805 0.026715618
0002f0 34 fb 2f 3b 82 89 94 ba 7c fe a0 3b 22 3e de 3c
       0.002685261 -0.0011332484 0.0049131494 0.027129237
000300 83 8d cd bc 36 69 c2 bc 84 88 e3 bc ca 65 9d 3c
       -0.025091892 -0.02373181 -0.027775057 0.019213576
000310 ea 1d c7 3b d1 54 53 3b bf 92 6f 3b 14 79 8a bc
       0.006076564 0.00322466 0.0036555973 -0.016903438
000320 da 0e bd ba 6b c0 2f bc 37 d8 d9 3c ee e3 20 bc
       -0.0014423982 -0.010727028 0.026592357 -0.009819968
000330 b0 6c 64 ba 47 66 a0 bb 50 af f1 b8 4d a7 d9 3c
       -0.00087137055 -0.004895005 -0.0001152443 0.026569033
000340 c0 08 85 bb 92 df d2 bc 8d 55 b5 3b ac c1 e3 3c
       -0.004059881 -0.025741372 0.00553388 0.02780231
000350 b5 9b d3 bb b3 35 8b 3c 92 cb 41 bc 4d 0c 9e bb
       -0.0064577707 0.01699338 -0.01182832 -0.0048232437
000360 35 f9 01 3b 99 a8 c6 ba 53 8d d0 3c 69 30 e3 3c
       0.0019832377 -0.0015156447 0.025458014 0.027733045
000370 64 35 2f bb 06 aa be 3c b2 d0 bf 3c 6d cb 28 3c
       -0.0026734704 0.023274433 0.023414943 0.010302407
000380 1a e2 92 ba 95 db bc bc 40 51 19 3c 45 26 cb bc
       -0.00112063 -0.023053924 0.00935775 -0.024798522
000390 29 07 e4 3c 6e c3 2e bc 20 5e b3 38 80 bf 62 b8
       0.027835445 -0.010666711 8.552917e-05 -5.4060947e-05
0003a0 dd d6 d5 bc 10 7f 48 bb 6c 17 13 3a 94 7c c6 3b
       -0.026103431 -0.0030593313 0.0005611095 0.0060573313
0003b0 66 e7 5f 3b a0 a0 f8 3b 59 3f d5 3c d4 aa e3 bb
       0.0034165024 0.0075875074 0.026031183 -0.0069478545
0003c0 51 35 b5 bb ca a3 27 bc 59 a9 4d bb fd ce 09 3b
       -0.0055300375 -0.010231921 -0.0031381457 0.0021027916
0003d0 33 0b 88 3c c5 0f 30 bc 26 fb 8a 3c 54 ff 4c 3a
       0.016606903 -0.010745947 0.01696546 0.0007820029
0003e0 ec 61 ea 3b a1 c6 5a 3b 98 d8 aa bb 5d a2 52 bb
       0.0071527865 0.0033382552 -0.0052138083 -0.0032140233
0003f0 db f9 e3 3c 2e bf be ba b6 10 e0 bc 3d 91 2e bc
       0.027829101 -0.0014552826 -0.027351718 -0.010654745

conv2.comp f4 [3, 3]
000000 70 ae 2f 3f 13 a9 b8 3e 8e 00 0f bf 9e c6 82 3e
       0.68625546 0.36066493 -0.5586022 0.25542158
000010 e0 0f bb be 94 4d e2 3c 16 84 20 bf 3c 72 e2 bc
       -0.3653555 0.027624883 -0.6270155 -0.027642362
000020 0e a7 39 3e
       0.18130133

conv2.root f4 [64, 2]
000000 db 42 92 bd f7 c7 be bd 74 55 d4 bd fc ca 46 be
       -0.07141658 -0.09315484 -0.103678614 -0.1941337
000010 d7 3d 30 bc a5 25 79 be b0 01 8d 3d 2e c0 45 be
       -0.010756931 -0.24330766 0.068850875 -0.19311592
000020 9e 02 29 bd 0a ea 49 3c a9 6f 74 3e 54 61 6c 3e
       -0.04126226 0.012323866 0.2387072 0.23084003
000030 54 35 d9 3d 5a 41 15 be 5a 20 c9 3c cc 1b 2e 3b
       0.10605875 -0.14575711 0.02455156 0.0026566861
000040 13 4e a4 bd b6 86 58 bd 4f 9e 44 be c1 c2 25 be
       -0.08022704 -0.052862845 -0.19201015 -0.16187574
000050 77 e4 34 be fe 98 40 be 7f 59 21 bd 27 7c 6b 3e
       -0.17665277 -0.18808362 -0.03939199 0.22996579
000060 88 82 56 bc dc 29 82 3e 4a 3c 49 be 0e e5 b0 bd
       -0.0130926445 0.2542256 -0.19651905 -0.08637439
000070 87 a5 17 3e 77 ad 86 3e d3 69 80 be 9a 0e 7d be
       0.14809237 0.26304218 -0.25080737 -0.24712601
000080 67 83 a6 3d 6b 5d a5 bd 06 32 22 3e 2b 0b 31 bd
       0.08130532 -0.08074459 0.15839395 -0.04322354
000090 7f f2 37 3e a2 70 43 3e 03 e9 33 3e 7c 16 de bd
       0.17963599 0.19085935 0.17569356 -0.10844132
0000a0 a7 ea 13 3e ea fb 02 3d f9 63 05 3d 53 a9 cb bc
       0.14444982 0.031978525 0.032566044 -0.024861014
0000b0 20 3c 21 3d 50 d4 a5 3d b7 76 42 3e c5 5b 03 3e
       0.03936398 0.08097136 0.18990599 0.12827976
0000c0 c5 b4 04 3e aa 6b b1 bd e0 9e 06 bd 2e 4a 49 3e
       0.12959583 -0.086631134 -0.03286636 0.19657204
0000d0 7f 33 2a 3c f5 ab dd bc 16 5b 86 3e bd f0 61 3e
       0.010388254 -0.027059535 0.26241368 0.2206449
0000e0 6f 20 59 3c 75 93 30 3e bd 6a 3b be bd ac 91 be
       0.013252362 0.1724375 -0.18302436 -0.284521
0000f0 8a 97 75 be 2f 26 0a be 5d 28 7b 3e 47 fb a1 be
       -0.23983589 -0.13491128 0.24527116 -0.31637022
000100 03 92 38 3e fa ac 0a 3e 47 c1 83 be ba e5 97 3e
       0.18024449 0.13542548 -0.25733396 0.29667455
000110 e1 1e ff 3d 11 c0 9f 3d aa 72 39 3e 43 4c 5a 3e
       0.124570616 0.07800306 0.18110147 0.21318154
000120 4a ba 1e bd 47 80 68 bd d8 1e 76 3e d1 3d b6 3d
       -0.038751878 -0.05676296 0.24035203 0.08898509
000130 51 8a 3a 3e ae 99 b2 3e 55 ad eb 3c a9 98 a8 3c
       0.18216826 0.34882873 0.028769175 0.020580607
000140 70 be 41 3e 5c 76 cb 3d c8 19 43 3b 1d 6a 8a 3b
       0.18920302 0.09934685 0.0029770005 0.0042240755
000150 87 09 ff bd a8 55 b8 3d cc 42 c6 bd 38 52 3c 3d
       -0.12452989 0.09000713 -0.09680709 0.045976847
000160 cd f0 a0 3d 76 36 ef bd 15 8b 9c 3b 25 fe 40 3d
       0.07858429 -0.116803095 0.004777322 0.04711737
000170 8f da 6c 3c 01 6a 20 bc a8 70 52 be 51 4b 1c be
       0.014456405 -0.009790898 -0.20550787 -0.15263106
000180 37 f6 8f bd b3 30 0d 3e b6 83 d6 3c e1 12 12 3c
       -0.07029384 0.13788109 0.026185852 0.008915634
000190 50 44 3b 3e 41 24 38 3e 3b 15 d6 bc 5a a3 ca 3c
       0.18287778 0.1798258 -0.02613317 0.024736095
0001a0 72 32 db bd 46 27 ed bd 02 19 94 3c 88 c1 11 ba
       -0.10702981 -0.115797564 0.01807833 -0.00055601494
0001b0 18 ab d4 be d4 d2 f7 bd fb 6f 9d 3d f7 cc 1d 3e
       -0.41536784 -0.12100759 0.07687374 0.15410219
0001c0 fa 2b 96 bc 69 88 38 3c 67 0c b3 3c 26 9d fc bc
       -0.018331517 0.011262991 0.0218565 -0.030836653
0001d0 c3 83 a2 3d 0c 33 69 be d6 4f 0e 3e 88 5d 28 3e
       0.07935288 -0.22773379 0.13897642 0.1644193
0001e0 f1 a3 05 3e fc b2 bc bd 66 8c e5 3d 3b af 0b 3d
       0.1305082 -0.09213826 0.112084195 0.03410266
0001f0 a0 5d 4b bd d4 c4 66 3d 1d 12 99 be 2a 81 58 be
       -0.049649835 0.056340054 -0.29896632 -0.21143022

conv2.bias f4 [2]
000000 f8 03 b7 bc f8 03 b7 3c
       -0.02234076 0.02234076
