models/A_20250323.pth (torch, 6116 bytes, 8 tensors)

conv1.weight f4 [3, 9, 16]
0	0xb8961e70	-7.158227e-05
1	0xbbfb5bc5	-0.007670852
2	0xbb197b70	-0.0023419522
3	0x3d13a286	0.036043666
4	0x3c2e0497	0.0106212115
5	0x3afc38b5	0.0019242974
6	0xbb409ac3	-0.002938912
7	0xbc39ddbb	-0.011344369
8	0xbc3e5b59	-0.011618459
9	0x3c1f9bb4	0.009741712
10	0xbb9111b5	-0.0044271597
11	0xbc106f47	-0.008815593
12	0x3c3cfd28	0.0115349665
13	0x3c465cab	0.012107055
14	0x3c6003b7	0.013672761
15	0xbac8dcfa	-0.0015324645
16	0xbb1ad430	-0.0023625009
17	0x3c45a4bc	0.0120632015
18	0x3b3f9202	0.0029231315
19	0xbc110179	-0.008850449
20	0x3bbbaa9d	0.005727126
21	0x3c3a7fc9	0.011383005
22	0xb9ebd2be	-0.00044979708
23	0xbaec67dc	-0.0018036324
24	0xbc280c54	-0.0102568455
25	0xb967f398	-0.00022120622
26	0x3b9dcedc	0.0048159193
27	0x3bae7e82	0.0053251395
28	0xba573a96	-0.0008210329
29	0xbb949301	-0.004534126
30	0xbbafe178	-0.005367454
31	0x3af5b0ab	0.0018744668
32	0xbc2dbab8	-0.010603599
33	0xbcc7d35b	-0.024392774
34	0x3ae48e9c	0.001743752
35	0x3bab9fe9	0.0052375686
36	0x3a8ff850	0.0010984037
37	0xba9ecf28	-0.0012116181
38	0x39804264	0.00024463527
39	0xbbab9986	-0.0052368073
40	0x3c3e5f88	0.011619456
41	0xbc569749	-0.013097593
42	0x39f91434	0.00047508033
43	0x3c5bcd53	0.013415652
44	0xbbaedb89	-0.005336229
45	0xbc01f4db	-0.007931913
46	0xbb60c025	-0.0034294215
47	0x3c500cdf	0.012698381
48	0x3c2c50e6	0.010517335
49	0x3a06c3e0	0.0005140882
50	0xbd0ca7b9	-0.03433964
51	0x3b2a25bd	0.0025962435
52	0xbb57ead9	-0.0032946377
53	0xbc600cf9	-0.013674968
54	0xbcc2e695	-0.02379159
55	0x3c31f3b6	0.010861328
56	0x3bd6f627	0.0065601054
57	0xbc3faab0	-0.01169841
58	0x3cf10583	0.029421574
59	0xb85d97e0	-5.283195e-05
60	0x3c5c5a14	0.013449211
61	0xbbf2cde4	-0.007409798
62	0x3c4e5d4a	0.012595484
63	0xbc4667c3	-0.0121097
64	0xbc238f7b	-0.009982939
65	0x3bafed1a	0.005368841
66	0xbc7dd3f5	-0.015492429
67	0x3c8e376c	0.017360412
68	0x3baac748	0.0052117445
69	0x3c602b47	0.013682193
70	0x3b56a5b6	0.003275258
71	0xbc26e22f	-0.010185762
72	0x3cfc3506	0.030787002
73	0x3c76b14b	0.015056918
74	0xbc528a15	-0.012850304
75	0x3ae93d67	0.0017794789
76	0x3bafce00	0.0053651333
77	0xbb6348e0	-0.0034680888
78	0xbc298a83	-0.010347965
79	0xbc5d3162	-0.013500543
80	0xbb92ba07	-0.0044777426
81	0x3b35e933	0.0027757406
82	0x3c5e6236	0.01357322
83	0xbb127543	-0.0022347725
84	0x3c11ce51	0.008899287
85	0x3a9c6c79	0.0011934183
86	0x3cf10578	0.029421553
87	0x3cf1f53a	0.029535878
88	0xbcd2c7a7	-0.025729967
89	0xbcd5f33e	-0.026116963
90	0x3b85a0ea	0.0040780203
91	0xba42ec04	-0.0007435682
92	0x3c5e5457	0.013569913
93	0x3c5f0098	0.013610981
94	0xba737a10	-0.0009287903
95	0x3a995fd4	0.0011701533
96	0x3b678e22	0.003533252
97	0x3b9520f8	0.0045510493
98	0xbd018cfb	-0.03162859
99	0x3c5673b3	0.013089108
100	0xbd14ab53	-0.0362962
101	0x3b1cab86	0.0023905947
102	0x3cafff9c	0.021484189
103	0x39e59c7b	0.0004379487
104	0xbb07dc5a	-0.0020730705
105	0xba09a2d7	-0.00052504
106	0xbc5c9876	-0.013464084
107	0x3d0709e9	0.032968435
108	0xbc385616	-0.011250993
109	0x3cd7716e	0.026299205
110	0xba932e49	-0.0011229004
111	0xbab6d4d2	-0.0013948923
112	0x3c5e67b4	0.013574529
113	0x3d0f8637	0.035040107
114	0xba11f01e	-0.0005567091
115	0x3ade0792	0.0016939512
116	0xbb96a61e	-0.0045974394
117	0x3c4d2029	0.012519875
118	0xbd0aded0	-0.033903897
119	0x3b6feb45	0.0036608737
120	0x3ac8f8a6	0.0015332892
121	0xbb80020c	-0.003906494
122	0xba2e650c	-0.00066526304
123	0x3b6ecf44	0.0036439458
124	0x3ceaf81b	0.028682759
125	0x3ba0b34d	0.004904187
126	0x3c20c6dd	0.009813038
127	0x3ae4e337	0.0017462735
128	0xbaf291fa	-0.0018506639
129	0x3cc69543	0.024241095
130	0xbb95fea0	-0.004577473
131	0x3959c160	0.0002076677
132	0x3b13703b	0.0022497314
133	0x3b19d04a	0.0023470097
134	0x3ceb978a	0.028758783
135	0x3c6629b6	0.014048031
136	0x3abbab53	0.0014318026
137	0x3c52e88b	0.012872825
138	0xbb9689ac	-0.0045940485
139	0xbb19a5f6	-0.0023444868
140	0xbc4ed1e4	-0.012623284
141	0xb94c03ca	-0.00019456368
142	0x3bfd6fee	0.0077342903
143	0x3aec4fb4	0.0018029124
144	0xbc018894	-0.007906098
145	0xbcccf241	-0.02501786
146	0xbc864bfc	-0.016393654
147	0xbba413f9	-0.0050072637
148	0x3bea4211	0.007148989
149	0xbb97952e	-0.004625938
150	0xba2d349c	-0.00066072657
151	0x3c493318	0.012280248
152	0x3c22b47d	0.009930727
153	0xbb074577	-0.002064077
154	0x3c3b5bbb	0.0114354445
155	0x3a85b54c	0.0010201125
156	0xbc3fc485	-0.011704569
157	0xbc06c926	-0.008226668
158	0x391575fc	0.000142537
159	0xbc95e84a	-0.01829924
160	0xbbf2bcec	-0.007407775
161	0xbce51fd8	-0.027969286
162	0x3b9cb013	0.004781732
163	0xbce8fcb0	-0.028440803
164	0xbab65baf	-0.0013912822
165	0xbc5f5463	-0.013630959
166	0xbaf93c49	-0.0019015159
167	0xba86b0a7	-0.0010276035
168	0xbbae26aa	-0.0053146677
169	0xbc4f948c	-0.012669694
170	0x3a08899a	0.00052084925
171	0x3c5ef16c	0.013607364
172	0xbb0c8172	-0.002143946
173	0x3c929e57	0.017897768
174	0xbc4cafb5	-0.012493064
175	0xbbae8e3f	-0.0053270156
176	0xbd01bb68	-0.031672865
177	0x3b78ee94	0.0037984
178	0x3c58b9fb	0.013227935
179	0xbc04d256	-0.008106789
180	0x3c4bc654	0.012437422
181	0xbd04c4a3	-0.03241409
182	0x3cd24174	0.025665976
183	0x3bb79558	0.00560252
184	0x3a4ed2dc	0.0007889697
185	0x3c355b11	0.011069075
186	0x3c43e468	0.011956312
187	0xbc57f6e0	-0.013181418
188	0xbb90a0d6	-0.0044137044
189	0xba7ce9f3	-0.0009647898
190	0xbc5c0c03	-0.013430598
191	0xba5285aa	-0.0008030782
192	0xbc310185	-0.010803585
193	0x39fad474	0.00047842006
194	0x3c5e3f39	0.013564878
195	0xbcff2e9a	-0.031150151
196	0x3ca2b95a	0.019863773
197	0xbd07e0bc	-0.033173308
198	0xbc5a1770	-0.013311252
199	0x3c293dff	0.010329722
200	0xbc07a282	-0.008278491
201	0xbbc994b1	-0.0061517586
202	0x3c5ced93	0.0134843765
203	0x3b498874	0.0030751498
204	0xbc355a5d	-0.011068908
205	0xbabd1dd5	-0.0014428446
206	0x3b1bd5e3	0.002377861
207	0xbc8c4e16	-0.017127078
208	0xbb3970a3	-0.0028295896
209	0xbbae73a8	-0.005323846
210	0x3d11eddd	0.035627235
211	0x3c5adc95	0.013358255
212	0x3a480096	0.0007629482
213	0x3c5626fa	0.013070816
214	0x3c4a4afa	0.012346977
215	0xbc4a2db1	-0.012339995
216	0xbc5f656b	-0.01363502
217	0x3c16ba73	0.009199726
218	0xb8e55170	-0.0001093474
219	0xba3d111e	-0.00072123285
220	0x3a827143	0.0009951968
221	0xba8944db	-0.0010472791
222	0x3c5a6db9	0.013331824
223	0x3999dffc	0.00029349315
224	0x3be5f0fb	0.0070172525
225	0xbcff0ebc	-0.031134956
226	0x3b9ff038	0.004880931
227	0xbc5ac40a	-0.013352403
228	0xbb9b9f3a	-0.004749206
229	0xbbc0f760	-0.0058888644
230	0xbb54ec48	-0.0032489467
231	0xbb7880c0	-0.0037918538
232	0x3c3975ef	0.0113196215
233	0x3c5fe4d3	0.013665396
234	0x3ad0038e	0.00158702
235	0xbb8a7fe7	-0.004226673
236	0x3a161aa4	0.00057260157
237	0xbbd7d859	-0.00658707
238	0x3b31e3e9	0.0027143902
239	0x3b98c050	0.0046615973
240	0xbb6b12c5	-0.0035869342
241	0xbbbf4490	-0.0058370307
242	0xb9e7ea5d	-0.00044234368
243	0xbc18fa8f	-0.009337082
244	0xbb70ab29	-0.0036723113
245	0xbc58cb0b	-0.013232003
246	0x3c5cc5a1	0.013474853
247	0x3d01faa3	0.031733166
248	0xbc4ed1c3	-0.012623253
249	0xbae63f16	-0.0017566408
250	0x3963d9f8	0.00021729607
251	0xb984f0e7	-0.00025356488
252	0x3b2f306f	0.002673175
253	0x3c2cbe72	0.010543453
254	0x3b2bff0b	0.0026244547
255	0xbbbc3f40	-0.0057448447

conv1.comp f4 [3, 3]
0	0x3d93aac1	0.07210303
1	0x3f0e4991	0.55581003
2	0xbe8f4385	-0.279812
3	0x3e670278	0.22559536
4	0xbf0f3913	-0.55946463
5	0x3f2327ce	0.6373261
6	0xbdd182f3	-0.10230055
7	0xbf36ed7e	-0.71456134
8	0x3edf619a	0.43629152

conv1.root f4 [9, 16]
0	0x3e1a2c66	0.15055999
1	0x3e39cf97	0.18145595
2	0xbc5e2386	-0.013558274
3	0xbeceda32	-0.40400845
4	0x3e7b08c4	0.24515063
5	0xbedb8592	-0.42875344
6	0x3eb2a2e5	0.34889904
7	0xbe58fb51	-0.2118962
8	0xbe62b91c	-0.22140926
9	0x3e9752d5	0.29555383
10	0xbee0d989	-0.43915966
11	0x3dba984c	0.091110796
12	0xbe4aac71	-0.19792344
13	0x3ec704f8	0.38870978
14	0x3e6be03f	0.23034762
15	0xbea92204	-0.33033764
16	0x3e8b1e74	0.2717167
17	0x3ec12ecf	0.37731025
18	0xbdd99d75	-0.10625736
19	0x3dc2355d	0.094828345
20	0xbd18bb0a	-0.03728775
21	0xbe37907f	-0.17926215
22	0xbe6ee564	-0.23329693
23	0x3e883d84	0.26609433
24	0xbc58dcc2	-0.0132362265
25	0xbf0332e8	-0.5124955
26	0xbd1e1478	-0.03859374
27	0x3e20aea2	0.15691617
28	0xbe914d48	-0.28379273
29	0x3e9ac092	0.30225044
30	0xbec20d0f	-0.37900588
31	0x3eb55bcc	0.35421598
32	0xbeb97fbc	-0.36230266
33	0xbeb3fc4f	-0.35153434
34	0x3cac5084	0.021034487
35	0xbe772375	-0.2413462
36	0x3b6469bc	0.0034853062
37	0x3f03752d	0.5135067
38	0x3d2059f2	0.03914828
39	0x3e0061e8	0.12537348
40	0xbe8c1405	-0.27359024
41	0x3d9cd3d3	0.0765759
42	0x3db4476a	0.08802684
43	0x3d866fc8	0.06564289
44	0x3c5a2db7	0.013316563
45	0x3e837e2d	0.25682202
46	0x3ecd516c	0.40101182
47	0x3ea6dd5f	0.32590768
48	0xbe97a3b4	-0.29617083
49	0x3f05dea9	0.5229288
50	0xbea197cc	-0.31561124
51	0xbe6a74fe	-0.22896191
52	0xbced9f40	-0.0290066
53	0x3d2ed17d	0.042680252
54	0xbe0131ed	-0.12616701
55	0x3e8fd3a3	0.28091154
56	0x3db90811	0.09034742
57	0xbca0392e	-0.019558515
58	0xbe9e2aae	-0.30891937
59	0x3ec40616	0.38285893
60	0xbe29730b	-0.16547792
61	0x3eee7e6e	0.46580833
62	0xbde08969	-0.10963709
63	0x3c9e6121	0.019333424
64	0x3ea9ad90	0.3314023
65	0x3e8adaf1	0.27120164
66	0xbd8f4226	-0.06995039
67	0xbe8dac19	-0.27670363
68	0xbe25e693	-0.16201238
69	0xbe1a05e6	-0.15041313
70	0x3cc50cb8	0.024053916
71	0x3e9904e8	0.29886556
72	0xbcc6231c	-0.024186663
73	0x3ecb57f1	0.3971553
74	0x3d3369ca	0.04380206
75	0xbdd195d7	-0.10233658
76	0x3d0eb936	0.0348446
77	0xbecc4bf5	-0.399017
78	0x3eba887e	0.3643226
79	0x3d46b60e	0.048513465
80	0xbecedda3	-0.4040347
81	0xbebb1702	-0.3654099
82	0xbdb421f2	-0.08795537
83	0x3ebb861f	0.36625764
84	0xbc71d8d4	-0.0147611685
85	0x3f088803	0.5333254
86	0xbe4596fc	-0.19295877
87	0x3dff0bb0	0.12453401
88	0x3b5c67c0	0.0033631176
89	0xbd11c380	-0.035586834
90	0xbeafe925	-0.34357563
91	0xbe0d0dd4	-0.13774806
92	0xbe888469	-0.2666352
93	0x3df44401	0.11927033
94	0xbe2d973d	-0.16952224
95	0x3b07f41c	0.0020744866
96	0x3e8fe74f	0.28106162
97	0x3e878af8	0.26473212
98	0xbe8a518e	-0.27015346
99	0xbd5ce45c	-0.053928718
100	0xbe8887fc	-0.26666248
101	0xbe7656c1	-0.24056531
102	0xbd8ac6dc	-0.06776211
103	0x3e2410d1	0.1602204
104	0x3b0efdb0	0.002181869
105	0x3e250604	0.16115576
106	0x3d121cbb	0.03567193
107	0xbb94b754	-0.004538456
108	0xbda2fd0c	-0.07958421
109	0xbe8d5369	-0.276027
110	0xbd593354	-0.053027466
111	0xbd210bea	-0.039318003
112	0xbe3ac2cb	-0.1823837
113	0xbc27640f	-0.010216727
114	0xbe4a1ee5	-0.19738348
115	0x3e0d642c	0.13807744
116	0xbe629712	-0.22127941
117	0xbe566e8c	-0.20940608
118	0x3df8bda7	0.12145548
119	0xbb2ede57	-0.0026682818
120	0x3d82b2de	0.063817725
121	0x3e0073fd	0.12544246
122	0xbb6597f2	-0.0035033193
123	0x3c28f9e9	0.0103134895
124	0x3e23d029	0.15997376
125	0x3da87882	0.0822611
126	0x3e81338e	0.25234646
127	0xbe4c0d5b	-0.1992697
128	0xbec57257	-0.38563797
129	0xbd9c4e9f	-0.07632183
130	0xbe3fc5d6	-0.18727812
131	0xbead583e	-0.33856386
132	0x3e1564e6	0.14589271
133	0x3ecc04cd	0.39847413
134	0x3e99086e	0.29889244
135	0xbf0d11b8	-0.5510516
136	0xbe4a3102	-0.19745257
137	0xbe220116	-0.15820727
138	0xbe02641a	-0.12733498
139	0xbec0ebd2	-0.37679917
140	0xbea62a01	-0.3245392
141	0x3ee729a2	0.4514895
142	0x3e89ab3b	0.2688845
143	0xbe841c60	-0.25802898

conv1.bias f4 [16]
0	0xbd83d22b	-0.06436571
1	0x3db9b180	0.090670586
2	0x00000000	0.0
3	0xbdc77bfa	-0.097404435
4	0xbda887ed	-0.08229051
5	0x3d5f36ae	0.054495506
6	0xbcf93580	-0.030421019
7	0xbda9690d	-0.0827199
8	0x00000000	0.0
9	0xbd92d9b5	-0.071704306
10	0xbcb7db40	-0.022443414
11	0xbdef50e9	-0.11685354
12	0x00000000	0.0
13	0x3db2d7ad	0.08732543
14	0x3d35e3e1	0.044406775
15	0xbde44a41	-0.11146975

conv2.weight f4 [3, 16, 2]
0	0xbc2d53fa	-0.010579104
1	0x3e79d03c	0.24395841
2	0x3c9ee6b3	0.019397115
3	0x3bdc5322	0.0067237774
4	0x3b508865	0.0031819579
5	0x3db15b21	0.086599596
6	0xbb3bf11e	-0.0028677653
7	0xbe6d9df6	-0.23204789
8	0xbe60f7df	-0.21969555
9	0x3d43703e	0.047714464
10	0xbc56af00	-0.013103247
11	0x3c58c129	0.013229647
12	0x3baff695	0.005369971
13	0xbe056aaa	-0.1302897
14	0xbe1fb25c	-0.15595382
15	0x3db8affc	0.09017941
16	0x3e1bd5c0	0.15218258
17	0x3bd08052	0.006362953
18	0xbc18dd30	-0.009330079
19	0x3c1c201a	0.009529138
20	0xbc600833	-0.01367383
21	0x3b814b50	0.0039457455
22	0xb91bf520	-0.00014873268
23	0xbc8d2fb2	-0.017234657
24	0x3e0c5f0c	0.13708133
25	0xbc601c60	-0.01367864
26	0x3d890ad4	0.066915184
27	0xbe574230	-0.21021342
28	0xbc19f4be	-0.00939673
29	0x3dda1ec9	0.10650403
30	0xbcf1f840	-0.02953732
31	0x3d5ee650	0.054418862
32	0x3c225b30	0.009909436
33	0xbc15385e	-0.009107677
34	0x3dd364ba	0.103219464
35	0xbe448125	-0.1918989
36	0x3e5f6c32	0.21818617
37	0x3c1b2ab6	0.009470632
38	0xbc1f796d	-0.00973354
39	0x3da208bc	0.07911822
40	0x3dd77120	0.10519624
41	0xbe41e9c9	-0.18936838
42	0x3dcded8f	0.10055076
43	0x3e253ed7	0.16137253
44	0xbd08f689	-0.03343824
45	0xbc560bf5	-0.013064374
46	0xbdc731be	-0.097262844
47	0xbb266167	-0.0025387646
48	0xba34f370	-0.000690273
49	0x3ba79030	0.005113624
50	0x3d5668a2	0.05234588
51	0x3e1fe5ce	0.15615007
52	0x3e051373	0.129957
53	0xbe69b385	-0.22822388
54	0xbe0622e9	-0.13099255
55	0x3c611ed8	0.013740264
56	0x3e34fd5e	0.17674777
57	0xbe6d60f0	-0.2318151
58	0x3c34576a	0.011007169
59	0xbc5ae05a	-0.013359154
60	0xbd04b101	-0.032395367
61	0xbb0c2ba2	-0.0021388312
62	0xbae1e69e	-0.0017234867
63	0xbe0d8ba4	-0.138228
64	0x3e274066	0.1633316
65	0x3d4dfae0	0.05028808
66	0x3c493152	0.012279825
67	0x3a29f48c	0.00064832787
68	0xbc02db5e	-0.0079868715
69	0x3c562b1d	0.013071802
70	0xbc6dfc21	-0.014525444
71	0xbaae657d	-0.0013305392
72	0x3bae3660	0.0053165406
73	0xbba6be30	-0.00508859
74	0x3d822c9f	0.06356167
75	0xbe2a0600	-0.16603851
76	0xbc0bbcbb	-0.008528884
77	0x3b0a956e	0.0021146196
78	0x3b72d45e	0.003705285
79	0x3e1a7960	0.15085363
80	0xba24ba0c	-0.00062838267
81	0xbc9f0f89	-0.019416587
82	0xbb0a78c5	-0.0021129113
83	0xbb060d36	-0.0020454652
84	0xbdf68e24	-0.1203883
85	0x3d904091	0.07043565
86	0xbd8dd54b	-0.06925448
87	0x3db1960c	0.08671197
88	0x3c4eea4f	0.012629106
89	0xbaf96774	-0.0019028024
90	0x3e744811	0.23855616
91	0xba8b6df1	-0.0010637623
92	0xbbfc162f	-0.007693074
93	0xbe116e71	-0.14202286
94	0x3d94a79b	0.07258531
95	0xbc6028cf	-0.0136816045

conv2.comp f4 [3, 3]
0	0x3f0493ef	0.5178823
1	0xbf0288e3	-0.5099012
2	0xbc4fecdb	-0.012690748
3	0xbda0565e	-0.07828973
4	0xbe6f2976	-0.2335566
5	0x3f162784	0.58654046
6	0x3c4b052e	0.012391372
7	0x3f373066	0.71558225
8	0xbf2de328	-0.6792474

conv2.root f4 [16, 2]
0	0xbdd2ca3c	-0.102924794
1	0xbe1e3bc5	-0.15452488
2	0x3e66e423	0.22547965
3	0xbecf4458	-0.4048183
4	0x3e4c12b1	0.19929005
5	0x3e976305	0.29567733
6	0x3af31ff2	0.0018548949
7	0x3db9e2d0	0.09076464
8	0xbed7f977	-0.42182514
9	0xbd58881e	-0.052864186
10	0x3e80a552	0.2512613
11	0xbe2a4ace	-0.16630098
12	0x3d727d32	0.059201427
13	0x3da09375	0.07840625
14	0x3e638d05	0.22221763
15	0x3e657951	0.2240956
16	0xbeaf4208	-0.34230065
17	0x3d16b1a1	0.036790494
18	0xbe3826ea	-0.17983595
19	0xbe01e86f	-0.12686323
20	0xbd096fde	-0.03355395
21	0xbed94385	-0.42434326
22	0xbecfa13a	-0.40552694
23	0x3ee15163	0.44007406
24	0x3c53e360	0.012932628
25	0x3bf24496	0.00739343
26	0x3df33815	0.11875931
27	0xbe6513c4	-0.22370821
28	0xbdc5c76c	-0.09657177
29	0xbe22abcb	-0.15885846
30	0xbedea96e	-0.4348864
31	0x3e22aa37	0.15885244

conv2.bias f4 [2]
0	0x3dba8de2	0.09109093
1	0xbdba8de2	-0.09109093
