models/Person_20250323.pth (torch, 48928 bytes, 8 tensors)

conv1.weight f4 [16, 36, 16]
00000000: b5e6 813c 25e5 02bd 02b1 07be 0860 c23c
00000010: 079a 0dbd 8d6f 11be ba61 38bd 5ce8 6fbd
00000020: 1e41 12bd d38a 2d3d 2f1e 1e3d 7537 4bbc
00000030: c32c ec3c 3dd4 f43c cb0d ad3d 9861 a1bd
00000040: 966f a5bd 516d 8bbd 6105 60bd f721 6abd
00000050: 62a9 20bc 5ae1 573d e4f4 29bd 4663 81bd
00000060: 0ff9 643c ada5 063c 4e73 c8bd ad9d 0a3c
00000070: 4dff c3bc 036f 293d ef0e 993d 6acc 8bbd
00000080: 0fb2 943d ea0b b6bc f8a5 11be 3741 df3c
00000090: 8486 3fbc 1b8a 1dbe 7d44 bfba 8828 7dbd
000000a0: 16ef 6fbd 4f69 0e3c a763 523c d432 133b
000000b0: 0aa0 863c 38c4 893c b558 bcbc 9b42 473c
000000c0: 9b35 163d 3358 21bd 1467 18be 38ae 7bbd
000000d0: c3ef 583d b2f6 b4bc ac01 a03d 5d8f 2bbd
000000e0: bab5 3d3d 4a53 60bd 8880 49bd 7a9f 8cbd
000000f0: 1ae4 513c 3ac9 cfbd f3f1 e6bc d59e 553d
00000100: 100e f63b d662 23bc f0c5 083d 9f82 b2bb
00000110: 7c95 e9bd a0d5 e3bd c2a0 983c c03b 82bd
00000120: c06e 503d 2483 59bc 6de8 8a3c bbed f1bd
00000130: 5356 77ba 4d26 09bd fcb8 ac3d e8aa 52be
00000140: 3d2d ddbd 9ccb c23c 85ab eb3d 37f1 9ebd
00000150: c62c 89bd 1b31 cfbd 44e1 12bd f0cf 3ebd
00000160: 545c a6bd 895d 1d3d 73f5 babd c61a 47bd
00000170: 0528 b63d a358 ebbb 2a4c b9bc a8d5 543d
00000180: 5119 b43d 3d59 293d a83a 3f3d 37e3 8abd
00000190: b0fa ea3c 20d6 90bc e8b1 753d 016f e438
000001a0: cedd 5e3d 16ec d1bb c091 89bd 1579 e03c
000001b0: 6803 333c 8ced 1d3e 38f6 9c3d 388a bebd
000001c0: 5629 5dbd cdb9 723b a857 93bd 739d 76bc
000001d0: cfec e2ba ef3a 82bd a192 353b f2e9 51bb
000001e0: ea1d d5bd 4969 1fbd 1c09 02bd 9f50 60bd
000001f0: 5d88 843d 3e5d eb3d bec5 8abc 8d70 40bd
00000200: 6e2b 46bd 4aa7 ce3c 812a 563d 79c2 b9bd
00000210: 94fe 86bc 798c d33c a3b9 583d a080 e3bd
00000220: e2fc 75bd 3e02 8f3a eb05 d6bd 3a8c b33d
00000230: 9c92 c13a 8ad4 063e 5ed0 01be 18d3 0fbe
00000240: 10c1 443c bcdb a0bc 9115 403d 267c cabd
00000250: faad aebd 365c 1abc ea96 0e3d a049 37bc
00000260: 50f0 953b 201e 5ebd 3555 bfbd 0812 33bc
00000270: 6c6a 8fbd d6c6 a73c bcc9 b1bc a33d 03be
00000280: cf12 b8bd a256 cdbc 60c0 363c 8912 2a3e
00000290: 404e 163c 5d4d b6bd 4c85 613d 1cbb b73c
000002a0: f492 cfbd 9c17 49bd 663f 213d cc42 4d3d
000002b0: 53a6 82bd 92b6 a9bc 2bb1 c53c 1025 9abd
000002c0: deca 10bd 0238 843d 94b7 fabc 3dc1 51bd
000002d0: 0cff 60bc 06ca afbd a0e6 ce3b d3d8 04be
000002e0: 2751 2abc ea29 f23d e733 f6bc 786b 08bd
000002f0: 4e33 e93d 8189 893d 369b e63b b091 173c
00000300: fcdc ccbd 6f15 78bd f1eb 483c 64d0 91bd
00000310: b232 f0bd 8c1a 923d 3605 9f3b afa2 38bd
00000320: 2cbe cc3c 185a 4fbd 5ec1 0ebd a78b 113d
00000330: 1bf6 c43d fcbf 983c 7725 593d 935e 893b
00000340: 05a2 a23b 61fd 96bd 2464 80bd d82b 273d
00000350: f34e c5b8 bd72 38bd a374 973d cbb4 73bb
00000360: b4e4 713c 55a2 653d 93a0 75bd 5318 983c
00000370: 710b 93bd 72a6 6bbd 0908 fb3b e284 30bc
00000380: 4d5e 26bc 86a1 76bc ee22 c2bd c510 1c3e
00000390: a3ba d13a ddf8 9abd a34d f43c 43f6 b23d
000003a0: 8844 ddbd 9716 2fbd 1a29 0fbd 555d 943d
000003b0: a703 003e b849 a0bc 67c2 57bc 5062 01be
000003c0: c101 61bd 3c32 a43b 3b1b a53d 687f 97bc
000003d0: f0e8 99bc 9d21 11bc 631c ddbd 79a4 cfbd
000003e0: 18ae 71bc ee88 01bd 7ccc 00bd bcb6 8b3d
000003f0: 0834 f33c 9a6c ad3d 3087 593d d1ed 80bd
0.01585708 -0.03195681 -0.13251117 0.023727432 -0.03457072 -0.1420271 -0.045015074 -0.058571205
-0.03570663 0.04236872 0.038603004 -0.012403359 0.028829938 0.02988636 0.084498964 -0.07879943
-0.08077924 -0.0680796 -0.05469263 -0.057161298 -0.009806009 0.052705146 -0.04149331 -0.06317763
0.013975396 0.008218211 -0.097876176 0.008460444 -0.023925448 0.041365635 0.074735515 -0.06826098
0.072605245 -0.022222478 -0.14223468 0.027252777 -0.011689786 -0.15384714 -0.0014592555 -0.06180623
-0.05857762 0.0086921 0.012841142 0.0022460716 0.016433734 0.016817197 -0.022991518 0.012161876
0.036672216 -0.039390754 -0.14883071 -0.061445445 0.05296303 -0.02209029 0.07812819 -0.04188477
0.046315886 -0.05476693 -0.049194843 -0.06866355 0.012810731 -0.10145803 -0.028191542 0.052153427
0.0075090006 -0.009972295 0.033391893 -0.0054477 -0.11405465 -0.1112473 0.018631343 -0.06359053
0.05088687 -0.013275895 0.016956532 -0.118129216 -0.00094351656 -0.033483792 0.084337205 -0.20573008
-0.10799644 0.02377873 0.11507324 -0.07760852 -0.06697993 -0.10116788 -0.03585936 -0.046585023
-0.08123079 0.03841928 -0.09128847 -0.048609518 0.08894352 -0.007182197 -0.022619326 0.05196157
0.08793891 0.04134487 0.0466868 -0.06781619 0.02868399 -0.017680228 0.059984118 0.00010892563
0.05441075 -0.0064063175 -0.06717253 0.027401486 0.010926105 0.15422648 0.0766415 -0.09303707
-0.0539945 0.0037037015 -0.071944535 -0.015052187 -0.0017313006 -0.06358897 0.0027705806 -0.0032030311
-0.10406096 -0.038918767 -0.03174697 -0.054764386 0.06471322 0.11492394 -0.016939994 -0.046982337
-0.04838126 0.025226254 0.05228663 -0.09070296 -0.016478814 0.025823819 0.052911412 -0.11108518
-0.06005562 0.0010910702 -0.104503475 0.087669805 0.0014768424 0.13167015 -0.12677142 -0.1404537
0.01200892 -0.019636028 0.046895567 -0.09886961 -0.08529277 -0.009421399 0.03481189 -0.011186987
0.0045757666 -0.05422795 -0.09342424 -0.010929592 -0.0700272 0.020480555 -0.02170264 -0.12816481
-0.089879625 -0.025065724 0.011154264 0.16608633 0.00917393 -0.089014746 0.055058762 0.022428088
-0.10135451 -0.04909478 0.039367102 0.05011253 -0.0637938 -0.02071694 0.024132332 -0.075266
-0.03534972 0.06455995 -0.030605115 -0.051209677 -0.013732683 -0.08583455 0.0063141137 -0.12973337
-0.010395325 0.11824401 -0.030054046 -0.033305615 0.11386739 0.0671568 0.0070375456 0.009251043
-0.10003087 -0.060567316 0.012263284 -0.071198255 -0.11728419 0.0713397 0.004852916 -0.045077022
0.024993025 -0.05062303 -0.034852378 0.035533573 0.096172534 0.018646233 0.053014245 0.0041921823
0.004963162 -0.07372547 -0.062691 0.040813297 -9.4083975e-05 -0.045031298 0.073952936 -0.0037186618
0.014764 0.056063015 -0.05996759 0.018566286 -0.07179917 -0.05753178 0.00766087 -0.010773869
-0.010154319 -0.015053159 -0.094793186 0.15240772 0.0016001057 -0.07566998 0.029822176 0.08738377
-0.10804087 -0.042746153 -0.034951307 0.07244364 0.12501393 -0.019566402 -0.013168908 -0.1263516
-0.054933313 0.005010871 0.080618344 -0.01849337 -0.018787831 -0.008858112 -0.1079643 -0.101387925
-0.01475098 -0.031624727 -0.03144501 0.06821963 0.029687896 0.0846798 0.05310744 -0.0629536

conv1.comp f4 [33, 16]
00000000: 463b f83d c958 8abd 2abc d6bc 7056 0c3e
00000010: f16f 86bc 6746 803e a815 a03e f221 3ebd
00000020: 3d80 0f3e c58d 9e3e 869c 883e 0545 473d
00000030: 15b1 433e 303d 81be 4ad3 9c3d 0750 00be
00000040: 686f 8d3e 73f1 ebbd 6a7e 29be 491d 29be
00000050: 5b55 ae3d ac0a 24be 923c 893e 924a af3d
00000060: c5c8 a0be c510 5bbe 68e0 3c3e c61e 60be
00000070: 0770 a1bb 9fb8 1bbe 7925 ff3c cba3 aebd
00000080: b8f2 45be 5475 e23d dbca 073c 7592 9abe
00000090: 94d6 e63d a6c7 eb3d 8f0a 8a3e 7cea 9e3d
000000a0: 10db 3b3e 2349 0fbd 2f8f a7be 639c bfbe
000000b0: 2d96 893c 31b1 98bd ca83 42be 7dc0 a7be
000000c0: 4f40 ae3e ae91 e4bd 852d 743e d4d4 a3be
000000d0: 9016 063e 5565 913e e20a 673e 0579 85be
000000e0: d77e 23be 2051 98be 9ec2 233e 0f24 303e
000000f0: 4193 813e cb39 37be bc14 0cbe 2194 e2bd
00000100: b2a9 0a3e 900d 423d d652 2cbe aa49 00be
00000110: 5f0a b6ba 0362 1cbd 6e5b 223e f140 cb3d
00000120: 300b b33c 5951 f7bd 09ba 18bd bc65 3cb9
00000130: a7d8 563e 7946 05be 895d a6be ed44 babd
00000140: 857f 9cbe 6cfc a5bd f0f0 81be 4444 febd
00000150: 7d9b 593e 529f be3e 3d16 afbe b3cd 923e
00000160: 1731 33be f82a 933e ae01 cabe 54f6 a83d
00000170: 8db5 e33d 223b f73d d4bb a9be 0b01 2e3d
00000180: ca31 a03e bfa6 aabe 7793 ba3d 1fbc 08be
00000190: 93cd 46be 2399 acbd aaee 8fbd bad8 903d
000001a0: c183 4bbe a18b 893e 3233 cfbe b1fe 5e3e
000001b0: eb59 633c 171a f03d 971c 803d 13d9 c13e
000001c0: 3e40 aa3b 748a 88bd cbd0 8ebe 15d8 81bd
000001d0: 1af7 85be 71b3 83bd 271d 4abd af13 273e
000001e0: 562d 68bd 294b 23be 10f4 7e3e 16b0 a13e
000001f0: ef43 013d b4ba 8dbe be6b 063d cf4f 6f3e
00000200: 7870 32be 9d39 88ba 8f38 783e a186 9abe
00000210: 01d7 b2be 8927 813e 57c5 bf3b 0fb1 a43d
00000220: 5eac 563e eeef 3fbe fa59 413e 1096 ca3c
00000230: fbb3 233e d205 6c3e 9d66 a63e 1b86 76be
00000240: 4241 13be 3794 d53d f91a 573e 1d20 9c3e
00000250: 7568 933e 5358 7cbe e382 2f3e 8495 2cbe
00000260: 3359 9d3e 51eb c33d 5906 653d 5940 41bd
00000270: 13ac 863e 89b0 303e 81af 833d 0735 9dbe
00000280: 92e4 cebe 3b74 81be ffec c53e ef20 213b
00000290: f3f7 57bd 5548 1d3e 5427 afbe 668b cc3a
000002a0: 7cfe 353e d95c 933e 4965 a1bd 79e2 7bbe
000002b0: f79c babd 7b86 91bc 5b50 a53e 7d43 1bbe
000002c0: e102 eebd 7db2 4fbd e41e 903e d44d 48be
000002d0: 4b00 fa3d 9c1c 1e3e a6ed f4bd 9e08 9c3e
000002e0: 7c96 0dbd 7a89 3d3e a8b8 483e 15e1 ab3e
000002f0: 1d7a 30bd 18c6 7b3d a7ff 813e 2de9 25be
00000300: ba1a 7ebe 2426 893e 69cc 223e 9ccc 8c3e
00000310: b78b cdbd b681 bb3d 9d88 8dbe 8c2c c53d
00000320: 3050 063e e16e 9d3e 1225 acbe 11a6 79bb
00000330: 80cf 4f3d 5cde 96be 01f8 dc3d c225 8bbe
00000340: fab7 973e 065a 7a3e 2480 d4bc fbe8 503e
00000350: 6b5b 1bbe d4ff e2bd b703 ae3e c49b 4d3d
00000360: 9392 89bd f380 a6be 58c8 2cbe a0b2 b0be
00000370: 00cf 873b c340 1a3d 10ae ae3e 6157 b3be
00000380: b7a6 dd3e 10cf 56be 976d eebd 25d2 693e
00000390: 0eb9 613e aff0 d53b f266 62be 61e8 e8bd
000003a0: dd75 28be 023c 7dbe 399f 2bbe d202 553e
000003b0: c726 16be f9d9 783e b95f 22be 5d9a 00bd
000003c0: 1d15 9d3d 1050 7db8 7630 03be 3c1d ee3c
000003d0: cbf1 083c fc21 2b39 457f ce3c 4d30 a5bd
000003e0: e248 07bc b4ef 5ebc 4ed6 6fba cc85 f93b
000003f0: 53fd cbbc 968a ae39 b074 19bb 50b5 553a
0.121206805 -0.06755216 -0.02621277 0.13704848 -0.0164108 0.25053713 0.31266522 -0.04641909
0.14013763 0.30967537 0.26681918 0.048649807 0.1911052 -0.25241995 0.07657488 -0.12530528
0.2762406 -0.11520662 -0.1655213 -0.16515078 0.08512374 -0.16019696 0.26804024 0.08559145
-0.31403175 -0.21393116 0.18444979 -0.21886739 -0.004926685 -0.15207146 0.031145798 -0.08527335
-0.19330871 0.11057535 0.008288111 -0.30189863 0.11271396 0.11512689 0.2696118 0.07759568
0.18345284 -0.034981858 -0.32726428 -0.37424 0.016795242 -0.074556716 -0.18995586 -0.32764044
0.3403344 -0.11160599 0.2384549 -0.31998312 0.13094544 0.28397623 0.22562745 -0.26068893
-0.15966354 -0.29749393 0.1599221 0.17201255 0.25307658 -0.1789314 -0.13679785 -0.110634096
0.13541296 0.047376215 -0.16828474 -0.125281 -0.0013888589 -0.03817941 0.1585519 0.09924496
0.02185592 -0.12076063 -0.037286792 -0.00017966976 0.20981084 -0.13015164 -0.32493237 -0.09095178
-0.3056604 -0.08104786 -0.25379133 -0.124153644 0.2125072 0.37230927 -0.34196654 0.2867256
-0.17499195 0.2874372 -0.39454406 0.08250108 0.111186124 0.120718256 -0.33151114 0.042481463
0.31287986 -0.33330342 0.09110158 -0.13353013 -0.19414358 -0.08427646 -0.070279434 0.07072587
-0.19874479 0.2686434 -0.40468746 0.21776845 0.013876419 0.11723726 0.06255453 0.37860927
0.0051956465 -0.06667033 -0.2789367 -0.063400425 -0.26165086 -0.0643071 -0.049344208 0.16316102
-0.05668386 -0.1594664 0.2489779 0.31579655 0.031558927 -0.27681506 0.032817595 0.23370288
-0.17425716 -0.0010393147 0.24240325 -0.3018084 -0.3492966 0.25225475 0.005852382 0.08041584
0.2096419 -0.1874387 0.1888198 0.024729759 0.15986626 0.23049095 0.32500163 -0.24074595
-0.14380363 0.1042866 0.21006383 0.3049325 0.28790632 -0.24643068 0.17139773 -0.1685391
0.30732116 0.095663674 0.055914257 -0.047180507 0.26303157 0.17254843 0.06429959 -0.3070452
-0.4040876 -0.2528399 0.38657376 0.002458628 -0.052726697 0.15359624 -0.34209692 0.0015605509
0.1777286 0.28781775 -0.07880647 -0.24598111 -0.0911197 -0.01776432 0.3228787 -0.15162463
-0.11621643 -0.05070733 0.28148568 -0.19560939 0.12207087 0.15440601 -0.1195939 0.30475324
-0.03456734 0.18509474 0.19601691 0.3357016 -0.043085206 0.061468214 0.2539036 -0.16202231
-0.24814883 0.2678691 0.15898289 0.27499855 -0.10036414 0.091556 -0.2764329 0.09627637
0.13116527 0.30748656 -0.33622032 -0.0038093368 0.050734997 -0.29466522 0.107894905 -0.27177244
0.2963255 0.24448404 -0.025940008 0.20401375 -0.15171592 -0.110839516 0.3398721 0.050197378
-0.0671741 -0.32520255 -0.168733 -0.3451128 0.0041445494 0.037659418 0.34117174 -0.35027602
0.43291256 -0.20977426 -0.11641996 0.2283407 0.22043249 0.006528936 -0.22109583 -0.11372448
-0.16451211 -0.24729922 -0.16759957 0.20801857 -0.1466323 0.243019 -0.15856828 -0.031397212
0.07670043 -6.0394465e-05 -0.12811455 0.029066674 0.008358429 0.00016320491 0.025207171 -0.08065853
-0.008257123 -0.013606954 -0.00091490604 0.007614827 -0.024901068 0.0003329112 -0.0023415498 0.0008152323

conv1.root f4 [36, 16]
00000000: 344c c2be ef81 8d3e 34b0 b4bd 9516 e7bd
00000010: f346 8bbe 28a7 92bc 8776 243e 7860 d9bc
00000020: 93d5 33be e773 12bc 08d5 9dbd 1de3 143d
00000030: dfa8 b5be af96 2ebe 2fc9 0dbe b6e4 973e
00000040: 9f59 99be 22ec 283e 258d 1ebe 1b33 a8be
00000050: f34f 0a3e 9b77 a83d da82 a4be a164 773e
00000060: b1ca 84be 6493 39bd 0a6c a53c 0807 7b3e
00000070: a636 273e fbb5 4c3e 180f 383d 0f44 7e3e
00000080: 61b3 14be a315 6abe 7ceb 2f3e eaa5 313e
00000090: 859c 9b3e c06b 753e 266f 7dbe f4db 353e
000000a0: 4086 3cbd ef98 aabe ad65 ea3d 0df7 f2bd
000000b0: 2994 66be c17d 343e a602 4abe a2f0 82be
000000c0: 0743 57bd c127 b9be ec54 523c 82fc c13b
000000d0: f728 73be b9a8 75be f6b4 41be 1eb3 44bd
000000e0: 2106 c2be 12e9 7b3d eba4 903d 6036 06be
000000f0: 0abd 0f3e 51f5 08bd 18f9 2dbe f325 663e
00000100: f826 d23c 98f4 c13d 5269 82bd 12e1 323e
00000110: 5164 d2bd 161a 143e 3d0c 753e 95bf 2b3e
00000120: b52e 103e 1065 aabe 8737 1b3e f2c0 293e
00000130: 90bb 083e f751 ca3e c45c da39 dda2 6d3e
00000140: e8fe c0be 799c 23be 430e 73be 48f3 52be
00000150: 466e 843e 13a6 693e 63ed a6be a121 373e
00000160: a7fc 7ebe f0d9 bdbe 53b5 513e 05b4 613e
00000170: a75f 323e fafc ddbd e5db dc3d 2bf4 5fbc
00000180: 9af2 bcbd f560 ff3d 4ef1 903e 1fcd c0be
00000190: 3d73 a43e d3b3 70be 21fd 66be b8bb a8be
000001a0: e1af 703e 3fd9 d5bd a057 d5bd 390c 52be
000001b0: 5ce3 70bc 2458 fb3b da6d 533c 5ba0 4fbe
000001c0: dd72 d03b b191 7bbe 3602 853d d891 b7be
000001d0: 0838 3dbd a844 febd 0d9e c13e 751f 363e
000001e0: 7141 bf3e 196a 903e 0c4b e83d 6952 d43d
000001f0: a7bb 963e d7a1 e3bd 7202 08bd 04ac 36be
00000200: 8ea9 f1bd b742 143e 3315 0dbe e989 d0be
00000210: 595e bdbd 416b 86be e6ac 163e 814c 34be
00000220: d8db 13bd f7e7 99be edf4 8a3e f513 823e
00000230: 9e6d b03d 0f31 98be 0068 4a3e 7956 8cbd
00000240: d5e7 913d 3bcb 8e3c 7298 c2be 1e9a 8ebe
00000250: d88f bfbd 1bf8 a2bb bf47 edbc 6bf1 d2bd
00000260: 81af 71bd 6c13 7cbe fb9c fdbc b13e 8bbe
00000270: c126 c23d ea6c 95bc f6a0 3d3e 120e 9cbe
00000280: 9c20 133e e8db 833e d181 15be 7dc1 8ebe
00000290: 736b edbe 7cd6 743e d78c b1be 52aa 9cbe
000002a0: 7463 4abe f91a 9bbc 78e7 a2be 930c 553e
000002b0: a178 533e 9e4c 723e 07b2 8a3e 305f 483e
000002c0: caf2 5abe 0fea ccbd a01c 74be 2bae 423e
000002d0: f999 3dbe e538 033d f8ea 88bd ea01 adbe
000002e0: 7232 8abe 87b9 673e 0ccb 173e 35ab 4e3e
000002f0: 408e eebd 103a cc3d 77a5 8f3e ac9c b6be
00000300: 9f1f 8a3e e6ed 333e fbf3 113e 7329 63be
00000310: 961b c6be 8f2c 0d3e 0400 ed3d f870 ed3d
00000320: f5f5 953d bc82 2a3d 87bd 323e 6cfc 50be
00000330: 4469 0fbd 4a17 2abb cfb8 28be c87c c43d
00000340: e5e1 17bd 78e9 9b3d 91dd d03d a310 aa3d
00000350: 8aeb 59bd a32a d03e 8cc3 bcbd ee2b 2c3e
00000360: b443 6f3a b87c 6abe 614f a0be 3a04 babd
00000370: 44c9 1abc 2670 3ebd 528b ebbc 0fb1 afbe
00000380: 64a9 213e 2264 6fbe 2dd5 733c e2bf 3fbe
00000390: 56d0 9bbe 1c2b 33be 18df db3d 1874 5abd
000003a0: b73c 853e c72e fbbd 9e5a 843e 2248 43bc
000003b0: 3e0a 11be 275b 0f3e 1116 c3be 40fb 88be
000003c0: 02cf 19bc f1bf 60be dcaf 0abe 9c3e d93d
000003d0: 0ef6 bfbd d622 22be b780 963e b127 eebe
000003e0: ae9d 6ebe 87cb aebe ba88 91be 8ae5 6d3d
000003f0: 83cd 863e 49ec abbe 843d a03b 8446 2dbe
-0.37948763 0.27638194 -0.088226706 -0.11283604 -0.27202567 -0.017901972 0.1606084 -0.026535258
-0.17561941 -0.008938766 -0.07706648 0.036349405 -0.354804 -0.17049669 -0.13846277 0.2966668
-0.29951188 0.16496328 -0.1548353 -0.3285149 0.1350706 0.08225938 -0.32131082 0.2415948
-0.2593589 -0.04530658 0.020193119 0.24514401 0.1632944 0.19991295 0.04493627 0.2483065
-0.14521553 -0.22859816 0.17179674 0.17348447 0.30392852 0.23966885 -0.24749431 0.17759687
-0.04602647 -0.33319804 0.11445174 -0.118635274 -0.22517456 0.17626096 -0.19727573 -0.25574213
-0.052554157 -0.36163142 0.01283763 0.005919994 -0.23746096 -0.23990144 -0.18916687 -0.048022382
-0.378953 0.06150157 0.070627056 -0.1310668 0.14036956 -0.033437077 -0.16989553 0.22475414
0.025653347 0.09470481 -0.063677445 0.1746867 -0.1027304 0.14463076 0.2393045 0.16772301
0.14080317 -0.3328023 0.15157901 0.16577509 0.133528 0.3951566 0.00041649316 0.23206659
-0.37694478 -0.15977658 -0.23735909 -0.20600617 0.25865382 0.22817259 -0.32602987 0.17883922
-0.24901067 -0.37080336 0.20479326 0.22041328 0.17419301 -0.10839267 0.10784129 -0.013669054
-0.0922596 0.12469665 0.283091 -0.37656495 0.3211917 -0.23506097 -0.22557499 -0.32955718
0.23504592 -0.10441827 -0.10417104 -0.20512475 -0.014702644 0.0076704193 0.012904609 -0.20276015
0.006361349 -0.24567296 0.06494562 -0.35853457 -0.046196014 -0.12415439 0.37815896 0.17785437
0.37354615 0.28205946 0.11342439 0.10367281 0.29440042 -0.11114853 -0.033205457 -0.17839056
-0.11799918 0.14478575 -0.13777618 -0.40730217 -0.09246511 -0.26253703 0.14714393 -0.17607309
-0.03609833 -0.30059788 0.2713999 0.2540585 0.08614658 -0.2972493 0.19766235 -0.06852431
0.071242966 0.017430892 -0.38006932 -0.27851957 -0.09353608 -0.004973424 -0.028964875 -0.10299953
-0.059005264 -0.24616784 -0.030958643 -0.27196267 0.09480048 -0.01824041 0.18518433 -0.30479485
0.14367908 0.25753713 -0.14600302 -0.27881995 -0.4637104 0.23909944 -0.34677765 -0.30598694
-0.19764501 -0.01893376 -0.31817222 0.20805578 0.20651485 0.2366204 0.2708895 0.19567561
-0.21381679 -0.10005581 -0.23839045 0.19011752 -0.18515767 0.03203668 -0.06685442 -0.33790523
-0.26991612 0.22629367 0.1482355 0.20182498 -0.11648226 0.09972012 0.28055927 -0.35666406
0.2697725 0.1757122 0.14253227 -0.2218378 -0.3869292 0.13786529 0.115722686 0.11593813
0.07322303 0.041628584 0.17455111 -0.20408791 -0.0350125 -0.0025953823 -0.16476749 0.09594113
-0.037080664 0.0761289 0.101985104 0.083039545 -0.053203143 0.4065753 -0.09216985 0.16813633
0.0009127215 -0.22899139 -0.3131056 -0.090828374 -0.0094473995 -0.04649367 -0.028752957 -0.34314772
0.15787274 -0.23378041 0.014882368 -0.18725541 -0.30432385 -0.17496914 0.10735911 -0.053333372
0.26022884 -0.122647814 0.25850385 -0.011919053 -0.14164063 0.13999616 -0.38102773 -0.2675419
-0.009387733 -0.2194822 -0.13543648 0.10607645 -0.09373103 -0.15833601 0.29395077 -0.46514657
-0.23302338 -0.34139654 -0.28424627 0.058080234 0.26328668 -0.3357871 0.0048901457 -0.16921431

conv1.bias f4 [16]
00000000: 14db f6bb 1f28 72bd 9a7b bcbd 812e 0fbd
00000010: 1454 ef3b 1c1e 67bd c958 8dbc d92b a3bc
00000020: 533b 0fbd 0a50 15bc b304 14bd 9a39 99bc
00000030: 868c 21bd c69b dcbc 9f4b 0cbb 3ecd 42bc
-0.0075334404 -0.059120294 -0.092032626 -0.03495646 0.007303724 -0.0564252 -0.01725425 -0.01991837
-0.034968685 -0.009113321 -0.036137294 -0.018704224 -0.039440654 -0.026929747 -0.0021407378 -0.011889754

conv2.weight f4 [16, 16, 2]
00000000: c565 343c 9a9b e83d 2947 f7bd 58d1 3abe
00000010: 2d09 75be f9b8 8cbd 2b5c c03c 387d aabe
00000020: 2276 24be 1ad8 ab3b a030 5cbe 2953 79be
00000030: 662e 7ebd 344a 673e ff4b 59be 5625 423e
00000040: 2d9f b43d 93e4 29bd 1829 29bd c446 ff3d
00000050: 4328 3dbe 8bc8 873e 7c07 1b3e 2a7f 9e3e
00000060: e255 25be 290e 27be 2e25 c4bd e171 133e
00000070: 0d89 0e3e 92a9 163e 1fb5 223d a61c babd
00000080: 9a0a 0b3e b196 0dbe f922 fdbd 7381 f7bd
00000090: d6e7 89be 2069 6bbd a739 483d e5e7 97be
000000a0: 7412 0a3d 3883 5a3e 11df f33d 8552 983c
000000b0: e7fe c23d 61d2 4dbc bc49 c13d 2656 803b
000000c0: 74bb 25be 5cd7 b6bd 68e6 72bc a095 603d
000000d0: c606 49be 5a3c 2ebe f9bb b9bc 1e7d 78be
000000e0: 49d2 7b3e 3f74 993d c243 6ebe c5e1 383e
000000f0: 5752 bb3d 3a14 febd e0e3 86bd f790 f4bd
00000100: 7743 7bbe ca16 11be 0f1c 08be 3888 92be
00000110: 9e2b a2bc 94ce 6dbe e804 153d 10ff 2c3d
00000120: 941a 083e 0ac9 3bbe 6af4 2fbe 23ea 38be
00000130: 7d14 9c3d e11b 1cbe a4d5 223e 26fe 393e
00000140: e10b e23d 55c5 3a3d 3ab9 233d df20 9abe
00000150: 1a17 2c3d ce11 cebd 9d8c 03be 04d9 43bd
00000160: fb9c cd3c 699e 87be 389d d2bc 085c 163e
00000170: a6d9 74be 9344 143d fce1 683e ee76 42bb
00000180: 93d5 94bd 3525 963e 1fa6 913e 1f06 763e
00000190: 2709 5bbe b4e1 24be cffc 683e a3a2 eb3d
000001a0: b744 393e b529 eabc 84c7 86bd 5a15 9cbd
000001b0: d009 8abd f75d 93be 3270 4c3e 7fa0 28be
000001c0: 091f 773e 4ed3 4c3e 5513 053e f27b 213e
000001d0: e8d2 e2bd 5dd8 803c 772b 93bd 5e2b 97bd
000001e0: 80ad 38be db47 033e 28df 8f3e 9e29 87be
000001f0: dff6 683d c252 9abe c550 a33c b3a8 9eb9
00000200: 8d3b 8cbe 0764 c83d b694 0fbe d204 c53c
00000210: 4727 3cbe bb94 bbbd de98 013e b6f4 ad3e
00000220: e3da b4be 2364 953d 9bfd 72be b516 63be
00000230: 4991 bebd 72e9 dcbd fea1 d9bd 1f05 28be
00000240: 1ba6 8d3e 0941 48be 0053 13be a3cf 3e3e
00000250: ae7f 193e cfc6 963e 8b49 3dbd 4465 b23d
00000260: 3575 2a3e 9c94 303c 4947 a0be c3a3 1cbe
00000270: 8742 4fbc ab42 513e 38db 9cbd 7254 6a3b
00000280: a2fd fc3d b1e4 7dbe d6ed 3abc 3627 403e
00000290: 9ff4 cd3a 0af1 5a3c 12c5 10be e2f5 55be
000002a0: e8ec 47be ffe8 8e3e 7c75 3cbe 2d05 1e3d
000002b0: 14ba 0c3e b6bd 153e 5fd3 c83d 6778 053e
000002c0: 6951 103e edd7 82bd d58b b33d 5c74 5a3c
000002d0: 6b33 2cbe db27 be3d 88ce 313e cc31 c5bc
000002e0: a335 83be 81d7 a23d 0678 a7be 33a2 203e
000002f0: 4278 b3be 9eb7 67be 8e8c 5f3d 208d 593e
00000300: a23b 5cbe aa25 803e 8934 94bd 62de 8b3e
00000310: bdd5 173e 3cb9 ff3d a9e9 323d 3260 bf3c
00000320: 55d1 7d3e 8829 37be 46a6 94be 0dd6 0b3e
00000330: 1a9f bfbd d83d a23e c3d3 583e 4687 2fbd
00000340: bbd4 e33c e821 bdbd c4fc 39bd 3459 c23d
00000350: 13ba 48be cd1d 40be a8e5 783d 7cfb bb3d
00000360: 8523 843e 0359 21be aca6 e03d 611e 4c3c
00000370: 6b86 63bd 1d31 d83d 795f 47be 5135 fdbd
00000380: e154 05be 6a92 21be 8171 403c 2dd2 5a3e
00000390: 7fa3 e6bd 4e6e f33d 67a6 a23e a8a3 4d3e
000003a0: 2124 6abe 5d9c ef3d 729e d13d 9fb6 263e
000003b0: dea7 86be 11ce 56be 74d7 c13c 5d06 25be
000003c0: fa5f b6be 0a02 da3d 4316 9a3e b4c9 853d
000003d0: 8e3c a8bb 9c84 8f3e 3826 d83c 3b28 3abe
000003e0: d8c4 ad3d cf65 39be 9d96 24be f959 a0be
000003f0: 6433 823d 2944 353e 98e5 a6be 1503 77be
0.011010592 0.11357804 -0.120741196 -0.18243921 -0.23929282 -0.06871218 0.02348145 -0.3329866
-0.16060689 0.005244267 -0.21502924 -0.2434813 -0.062055968 0.225869 -0.21220396 0.18959555
0.08819423 -0.04147775 -0.041298956 0.12464669 -0.1847239 0.2652019 0.15139574 0.30956393
-0.16146043 -0.16313995 -0.09577404 0.1439891 0.13919468 0.14713123 0.03972351 -0.090874955
0.13578263 -0.13827015 -0.12360186 -0.12085237 -0.2693469 -0.057473302 0.048883107 -0.2966911
0.033709005 0.21339118 0.11907781 0.018594036 0.09521275 -0.012562365 0.09437892 0.0039165197
-0.16184789 -0.08927795 -0.014825441 0.054830194 -0.1963149 -0.1701521 -0.02267264 -0.24266478
0.24591936 0.07492875 -0.23268035 0.18054874 0.091465645 -0.12406202 -0.065864325 -0.11941712
-0.24537455 -0.1416885 -0.13291954 -0.28619552 -0.019796189 -0.23223335 0.036381632 0.042235434
0.13291389 -0.18338409 -0.1718308 -0.18058066 0.07621095 -0.1524501 0.1590181 0.18163356
0.11037422 0.045598347 0.039971568 -0.30103204 0.04201422 -0.1006199 -0.12846608 -0.047814384
0.025099268 -0.26488045 -0.025709733 0.14683545 -0.23911151 0.03619821 0.22742456 -0.0029672938
-0.072672985 0.29325262 0.28447053 0.24025773 -0.2139021 -0.16101724 0.22752689 0.1150563
0.18092619 -0.02858434 -0.06581023 -0.0762126 -0.06740153 -0.28782627 0.19964674 -0.16467474
0.24132933 0.20002481 0.12995656 0.15769938 -0.110753834 0.01572817 -0.07186025 -0.073813185
-0.18034935 0.1282038 0.28099942 -0.2639894 0.05687606 -0.30141264 0.019935975 -0.000302618
-0.27389184 0.09784704 -0.14021572 0.02405015 -0.18374358 -0.091592275 0.1265597 0.33975762
-0.35323247 0.0729449 -0.23729555 -0.22176631 -0.09305055 -0.10786714 -0.10626601 -0.16408204
0.2766579 -0.19556059 -0.1438713 0.18633895 0.14990112 0.29448554 -0.046212714 0.08710721
0.16646273 0.010777619 -0.31304386 -0.15296845 -0.012650139 0.20435588 -0.07659 0.00357559
0.12353064 -0.2479427 -0.011409244 0.18764958 0.0015713162 0.013363132 -0.14137676 -0.20894578
-0.19523966 0.27912137 -0.18404192 0.038579155 0.13742858 0.1462315 0.09805941 0.13034211
0.14093556 -0.06388841 0.08766905 0.013333406 -0.1681649 0.092849456 0.17363942 -0.024071597
-0.2562686 0.0795126 -0.32708758 0.15686874 -0.35052687 -0.22628638 0.054577403 0.21245241
-0.21507123 0.25028735 -0.07236583 0.27318102 0.14827628 0.124865025 0.043679867 0.0233613
0.24786885 -0.17886937 -0.29033107 0.13655873 -0.09356518 0.31687808 0.2117453 -0.042853616
0.027811399 -0.09234983 -0.04540707 0.094896704 -0.19602232 -0.18761368 0.060765892 0.09178826
0.2580835 -0.15756612 0.1096929 0.012458415 -0.055548113 0.105562426 -0.19470014 -0.12363685
-0.1302066 -0.15778509 0.011745811 0.21369238 -0.11261653 0.11886273 0.3176758 0.20081961
-0.22865345 0.11699746 0.10235299 0.16280602 -0.26299948 -0.20977046 0.023662306 -0.16115709
-0.356201 0.1064492 0.3009511 0.065326124 -0.005134172 0.2803086 0.026385412 -0.18179409
0.084848106 -0.18105243 -0.1607308 -0.31318644 0.06357458 0.17701782 -0.3259704 -0.2412227

conv2.comp f4 [33, 16]
00000000: d694 92bd 9949 2e3d 993c c43d b144 0ebb
00000010: b448 76bd 3e58 33bd 1061 7a3e a790 b0bd
00000020: 4d8b d83d bc02 993e b814 4ebe e396 9b3e
00000030: adf5 6d3d acc4 b9bc 4fc0 1f3e 886a e43c
00000040: 715e a83d 0548 a23e fd6a af3e e35f 643d
00000050: 5898 02be 5972 8dbe 2594 a6be b310 b13c
00000060: c8cb e6bd a10f a8bb 7e24 8ebd 174c 4cbd
00000070: 70ec 98be 456f cdbd 57a1 d13d 256b 723d
00000080: fcb4 813d f8c0 163d beac 403e 9162 dbbc
00000090: ac55 3ebe eea8 acbe 68a9 6abe e70d 393e
000000a0: b612 263c 681c 3b3e b020 f4bd f492 753e
000000b0: ef42 ca3d e17e 343e 9a19 e1bd de7c 3abd
000000c0: 1845 9eb9 f562 6dbd c096 b43a e446 1439
000000d0: af1b f2bd 4b69 9a3a 6c29 f93b f588 4abd
000000e0: 4b50 853c 378e b63d 0a23 703d e313 883d
000000f0: f7d2 c2bb e8f5 a83b 74d6 77bb e2d3 3c3b
00000100: 07df febb 25be fa3d a065 e4bc 2eaa ddbd
00000110: a029 dabc 24b1 83ba f8c2 89ba 4dba 61bd
00000120: d5b5 f9bd 1c25 5d39 5660 42bc d518 fe3d
00000130: 6ccb 1bbb 7e98 86bd 3c59 ee3d 38d1 97bb
00000140: 7220 73bb a276 1c3c bbdb c43b dc50 4dba
00000150: e4ed 203d d512 5f3b 440c 6839 4fad d7bb
00000160: 8eb8 f1ba 14fc 373d ee37 ba3a 9fca 813d
00000170: a367 2fbd d15b 86bb 3986 4739 35fd 0fbb
00000180: 0807 76bd 829a 0a3b 73ac 043b 9d53 32bd
00000190: ba11 b7bd eabb 23bc 4417 af39 8d19 d83d
000001a0: 84d2 eb3d 03d3 8dbd 2265 26bd 0b0d 1a3d
000001b0: b7e9 893c 0445 ac3c 4213 f8ba eb43 dabd
000001c0: d0b0 803d 83c9 e93c 0c11 ad3d 1ff0 c33b
000001d0: 5427 01be b086 2a3d 6468 a6bd c6f0 b13d
000001e0: 8ffd 00bd 5c9f 863d f2bb 80bd a460 abbd
000001f0: a126 e23d 3ee8 c33b 9afd 093c 66ca 19bb
00000200: 7a46 313a 148e a2bc 0844 2e3c 65bb 9b3b
00000210: 440d 333b 22e1 a03b 914b 10bc b84b d43d
00000220: 3ccb 0e3c 0bff ed3a 5d61 16bc a50b 113c
00000230: f600 853c 6930 93b9 2059 01be 0044 5d37
00000240: 654d 9c3d 4e58 803c d784 7bbd dd55 89bd
00000250: 8ed0 8b3b 7ce9 61bc 1c02 fabd a248 13bc
00000260: 56bd a5bd 2d15 f6bd d85d 36bb a0b8 baba
00000270: d434 1ebc de17 72bb a603 3a3a e001 fd3d
00000280: e542 bebe 54f2 9a3c 2f18 d9bc a325 173e
00000290: fbe7 9bbe de85 9bbd 5b2f 5abe 2c67 7abd
000002a0: 9e62 be3c d8fe c43d f43b 5a3d 8240 5fbe
000002b0: 8dc4 473e ef89 3b3e 40da 87bd 9370 3d3e
000002c0: cc4f 24bd a532 2c3c 460d 6a39 080e 843b
000002d0: 9a41 353b 57a6 193b 5568 e13b cc21 22bc
000002e0: c889 c33c 6ead cbba 7aeb b1bd d7a0 a43d
000002f0: 8218 78bb c995 8dbd 7ce8 dcbd 4366 b43d
00000300: 43b3 0e3d 0a36 b0bd 23f0 dbbc 685d 85bd
00000310: 96c2 91bc 7641 f53d e572 9d3d ed0e 49bd
00000320: b4dc 163c a763 1c3b 35b0 03be c2c5 423d
00000330: 522d 343b 7e64 9c3c e6a0 b43d edf8 21bc
00000340: 20ae f1bd 15b0 1f3c 5a26 7c3d ea3e 233c
00000350: e642 f93d 458c 23bc 5956 bdbc 27e8 5fbc
00000360: 9a2a 533d f501 c53a 7804 4abc d465 19b9
00000370: d941 c8bd 7d08 553d 0b9e 2e3d d085 54b7
00000380: 50e3 103e baad 503e b991 99be 597d cf3d
00000390: 5b0b 8e3e a4d3 653e 1a95 abbb 0d21 51be
000003a0: 513f d03c 8c3b 743e c81c 21be 9baf 91be
000003b0: e166 913e ea04 97be 1b58 4abd 06e2 833e
000003c0: a587 1f3d 34e7 103c bc5f bfbd 0ae6 2d3d
000003d0: f067 e93a 5224 d5bc 0d10 8e3b eec3 cdbb
000003e0: 5e98 513a 4153 923c d6ef 313b 82f3 61bd
000003f0: d6f7 b33b da32 a3ba cbd2 103c 033b 7f3d
-0.071572945 0.042550657 0.095818706 -0.0021708424 -0.06012793 -0.043785326 0.24451089 -0.0862134
0.105734445 0.298849 -0.20125091 0.30388555 0.058095623 -0.022676788 0.15600704 0.02788283
0.08221138 0.31695572 0.34261313 0.055755507 -0.12753427 -0.27626303 -0.325349 0.021614408
-0.11269337 -0.0051288162 -0.06940554 -0.049877252 -0.29867887 -0.100309886 0.10235851 0.059184212
0.06333348 0.036805123 0.18815896 -0.026780399 -0.18587369 -0.33722633 -0.22916186 0.1807171
0.010136297 0.18272555 -0.11920297 0.2398184 0.09876048 0.17626525 -0.10991211 -0.04552924
-0.00030187587 -0.0579557 0.0013777837 0.00014140789 -0.118216865 0.0011780647 0.007603815 -0.04944702
0.016273638 0.08913844 0.058627166 0.06644418 -0.005945559 0.0051562674 -0.0037817033 0.0028812815
-0.007778052 0.122432984 -0.02788049 -0.10823475 -0.026631176 -0.0010047299 -0.0010510376 -0.05510931
-0.12192885 0.00021090027 -0.011863789 0.1240708 -0.0023772372 -0.06572054 0.11638114 -0.004633095
-0.0037098196 0.009549769 0.006007639 -0.00078321784 0.03928937 0.0034038324 0.00022129813 -0.0065819393
-0.0018441842 0.044918135 0.0014207342 0.06337475 -0.042823445 -0.004100301 0.00019028121 -0.0021970992
-0.0600653 0.0021149223 0.002024439 -0.04353677 -0.08938928 -0.009993533 0.00033395935 0.105517484
0.11514762 -0.06925013 -0.04062379 0.037610095 0.016835077 0.021029003 -0.0018926638 -0.106574856
0.06283724 0.028538471 0.08450517 0.0059795524 -0.12612659 0.041632354 -0.0812538 0.08688502
-0.031491812 0.06573364 -0.06285848 -0.08368042 0.11042524 0.005978613 0.00842228 -0.0023466586
0.0006762516 -0.019843139 0.010636337 0.004752564 0.002732114 0.0049096504 -0.008807079 0.10366005
0.008715447 0.0018157674 -0.009178487 0.008852874 0.01623581 -0.00028074093 -0.12631655 1.3188459e-05
0.07631949 0.015667107 -0.061405983 -0.0670583 0.004266805 -0.013788577 -0.122074336 -0.008989485
-0.080927536 -0.12015758 -0.0027826931 -0.0014245696 -0.00965615 -0.0036940495 0.00070958806 0.12353873
-0.3716041 0.01891438 -0.02650079 0.14760451 -0.30450425 -0.075938925 -0.21307127 -0.06113355
0.023240384 0.0961892 0.053279832 -0.21801952 0.19508572 0.18314336 -0.06633425 0.18499975
-0.040115163 0.0105101215 0.00022320924 0.004029993 0.002765751 0.0023445094 0.0068788924 -0.009895753
0.02386941 -0.0015539357 -0.08687492 0.0803849 -0.0037856405 -0.06913335 -0.107865304 0.088085674
0.034838926 -0.08604057 -0.026847905 -0.065119565 -0.017792981 0.11975376 0.0768793 -0.0490865
0.009207893 0.0023863108 -0.12860186 0.047551878 0.0027492833 0.019090887 0.088197514 -0.009886009
-0.1180079 0.009746571 0.061560012 0.00996373 0.12170963 -0.009982173 -0.023112463 -0.013666189
0.0515543 0.001503049 -0.012330167 -0.00014629151 -0.097781844 0.05201005 0.04263119 -1.266734e-05
0.14149213 0.20378771 -0.2999399 0.1013133 0.2774304 0.22444016 -0.00523628 -0.20422764
0.025420817 0.2385084 -0.15733635 -0.2845429 0.28398803 -0.29495937 -0.04940043 0.2575838
0.03894772 0.008844186 -0.09344432 0.04245571 0.0017807465 -0.026018295 0.0043354095 -0.00627946
0.0007995422 0.017861964 0.002715101 -0.055163868 0.005492191 -0.0012451068 0.008839319 0.062312137

conv2.root f4 [16, 2]
00000000: 50c2 81bd 4a49 473e b4c8 4abe 278f 693e
00000010: ffe6 2b3e db4b a9be aa28 fcbe e0af b43e
00000020: 715f acbc 4eb3 b33e 1989 923e edce e2bd
00000030: b682 bdbd c40b f6be ee81 a73c b2a0 c23e
00000040: c835 6ebe 78f3 413e 2dbf 723e 533c c5be
00000050: c6b6 a7be 5709 ad3e 97eb ca3e da71 643d
00000060: a60c a33e 7b67 813e a579 a23d f604 e3bd
00000070: b77e c4be d97b 3cbe 5cc5 ebbe efa6 c7be
-0.0633589 0.19461551 -0.19803125 0.22808515 0.16787337 -0.33065686 -0.49249774 0.35290432
-0.021041604 0.35097736 0.28620222 -0.11074624 -0.09253447 -0.4805585 0.020447697 0.38013226
-0.23262703 0.18940532 0.2370574 -0.38522586 -0.32756633 0.33796188 0.39632866 0.05577264
0.31845587 0.25274262 0.07933358 -0.110849306 -0.38377926 -0.18406619 -0.4604901 -0.38994548

conv2.bias f4 [2]
00000000: 05e0 9fbc 05e0 9f3c
-0.019516 0.019516
